deep_checkpoint.pth (torch_old, 28333 bytes, 6 tensors)

fc1.weight f4 [64, 37]
000000 16 76 f3 3d 32 f1 40 3d 69 df 9d bc be d7 a6 be
       0.118877575 0.04710502 -0.01927157 -0.32586473
000010 a4 ac 1e bf c6 b9 8f 3d e0 21 43 3d ef 36 ab 3d
       -0.6198218 0.07017855 0.047639728 0.08360087
000020 a7 e3 b0 3d 6e c6 28 bd 4d 4c 93 3e 84 05 ca bc
       0.08637171 -0.041204862 0.2876915 -0.024660833
000030 48 51 34 be 30 4b 16 bf 74 c4 a4 bf 20 d7 07 3e
       -0.17609131 -0.5870848 -1.2872453 0.13265657
000040 5d 83 59 3c 71 d0 cb 3d d0 32 9d 3c ee cc 1b 3d
       0.013275948 0.099518664 0.019189268 0.038037233
000050 92 43 cb bd cc 10 6a 3d 67 49 65 3e 73 d4 6d 3e
       -0.099249974 0.057144925 0.22391282 0.23225574
000060 66 84 8c 3e 91 ea 10 3c de 11 d2 bb b6 a7 01 3e
       0.27444762 0.0088449875 -0.0064108213 0.12661633
000070 23 f0 59 3d 7d fa 26 bc 4e 3f a9 3c f3 60 27 3e
       0.053207528 -0.010191557 0.020660069 0.16345577
000080 6e 54 98 bd 77 36 42 3d bc ff af bd a9 21 8e b9
       -0.07437979 0.047415223 -0.08593699 -0.0002710943
000090 7d a4 08 bd 0e bd 0a 3e db 9f 16 3e bf 66 e4 3d
       -0.033359993 0.13548681 0.14709418 0.1115241
0000a0 2d 81 45 3d ba 58 3e be 48 99 01 3c ad d2 96 3c
       0.048218895 -0.18588534 0.00791008 0.018411005
0000b0 a4 a3 c1 3b b6 ce 8a 3d 25 7b 0b 3e d0 a2 47 3e
       0.0059094 0.06777708 0.13621195 0.19495702
0000c0 5a c4 b3 bc f1 b9 c8 3d c5 43 48 bd 20 a0 c9 bd
       -0.021944214 0.098010905 -0.048892755 -0.098449945
0000d0 a6 c6 f5 3d e6 5b f5 3d 0b 3e 3d 3d e1 c6 c7 3d
       0.1200078 0.11980419 0.046201747 0.0975473
0000e0 3a 86 98 3d b1 d1 b7 bd ce 00 68 bd b9 53 e3 3d
       0.07447477 -0.08975542 -0.056641392 0.11099953
0000f0 6d 11 6c bc bd 74 c2 3e 83 e7 c6 3d 7e 6e a9 3d
       -0.0144084515 0.3797969 0.09712126 0.08273028
000100 1e 31 7b bc 96 a6 64 3d 6a 29 3a be 7a de 75 3e
       -0.015331535 0.05582293 -0.1817986 0.2401065
000110 03 48 3f 3e 32 73 cf 3d 90 82 82 be 0e d3 04 bf
       0.18679814 0.10129394 -0.25490236 -0.51884544
000120 99 17 cf bc 34 fd ff 3c 4c 6f 96 3d e3 b6 3c 3e
       -0.025279807 0.031248666 0.07345447 0.18429141
000130 db 6f 61 3e 45 1c d0 be 14 ea d3 be c1 31 71 be
       0.22015326 -0.40646568 -0.41389525 -0.23554136
000140 9f a6 41 3e a7 a6 52 3e 89 50 ca bd b8 22 15 3d
       0.18911217 0.20571385 -0.09878642 0.036410064
000150 bc 0b 38 be 0a 53 42 bd 09 88 19 3e 8d fc 96 3c
       -0.17973226 -0.047442473 0.149933 0.018430972
000160 c5 3e 74 3e 2a 34 80 bd bf c8 1c 3d cb 97 1e 3e
       0.2385207 -0.062599495 0.038277384 0.15487592
000170 88 9c 8c bd f9 d1 bf 3e 8d ce 56 3c f9 98 a2 3d
       -0.068657935 0.37464884 0.013110769 0.079393335
000180 05 d5 15 3e b7 40 9e be 7b 6b c7 be 2e 86 bb bd
       0.14632042 -0.30908749 -0.3894919 -0.09156452
000190 6d 08 40 3e 2d df 8d 3e 28 00 8f be 68 97 49 be
       0.18753214 0.27709332 -0.27929807 -0.19686663
0001a0 84 b4 57 bf 3b cd 64 be db d3 24 3e d4 43 94 3d
       -0.8425982 -0.22343914 0.16096441 0.072395
0001b0 e3 cf 05 bf ae 5e bc bc a7 16 1b bd 09 54 1a 3e
       -0.52270335 -0.022994366 -0.0378634 0.1507112
0001c0 7d 0e 14 be 8a 89 85 3e 2b e8 04 be cc eb a5 be
       -0.14458652 0.26081496 -0.1297919 -0.3240646
0001d0 fb 46 49 be 9e f5 b1 3e 95 d9 07 3e 56 4a 62 be
       -0.19655983 0.34757704 0.13266595 -0.2209867
0001e0 c6 0a 89 be 4a b6 98 3d 18 7b fc b9 a3 8c d6 3d
       -0.26766032 0.07456644 -0.00048156898 0.10476043
0001f0 8c 89 1b bd 02 58 57 bf 54 d9 a6 3c 08 32 aa bd
       -0.03797297 -0.84118664 0.020367302 -0.08310324
000200 2e c1 36 3e 4c 7f 2a bf 86 84 92 be 65 fb 96 3c
       0.1784713 -0.6660049 -0.28616732 0.018430421
000210 7b f7 a2 be e4 af 83 3e f8 44 b0 be cc e3 be be
       -0.31829438 0.2572013 -0.3442762 -0.3728317
000220 17 8b a5 3c db 00 96 be aa f5 2e 3e 79 d9 88 bd
       0.020207925 -0.29297528 0.17085901 -0.066821046
000230 96 e8 f4 be 8a 1e 1a 3e e3 6c a5 3e 83 8a 31 3d
       -0.478337 0.15050712 0.32309636 0.043344986
000240 c2 c5 b3 be 2d 82 85 bf fb af 19 3e 26 bb 28 bc
       -0.35111815 -1.0430351 0.15008537 -0.010298526
000250 5c 5a 0a be 97 28 e2 3c f8 e0 86 3c dd a3 89 be
       -0.13511032 0.027607245 0.016464695 -0.2688283
000260 dd 49 0c be 52 61 00 3d f7 28 d9 3d fb 9a 45 3d
       -0.13700052 0.031342812 0.106035165 0.048243504
000270 6f f1 52 be 92 db d6 bf f0 11 b5 bd 64 7f ae 3d
       -0.20599912 -1.6785758 -0.08841312 0.085203916
000280 0a 82 66 3d cf 01 51 bd e2 f0 25 be 77 0c fd bd
       0.05627636 -0.051027115 -0.16205171 -0.12355893
000290 04 ae 3d 3e b5 21 a3 3b e0 00 29 be 3c 53 05 bf
       0.18523413 0.0049783834 -0.1650424 -0.5208013
0002a0 e8 73 b6 bc ea 52 14 3e 7f c7 25 bd 80 2a 0d be
       -0.022272065 0.14484754 -0.040473457 -0.13785744
0002b0 47 a8 ed be 05 0e ae 3d e3 e5 8c 3e ac 67 22 3e
       -0.46417448 0.08498768 0.2751914 0.1585986
0002c0 dd e9 46 be 55 c4 a4 bf 99 9a fe 3d 38 8f 08 3e
       -0.1942515 -1.2872416 0.12431831 0.13335884
0002d0 2f 87 22 bc 93 7d a5 bd 8c 34 57 bf 30 78 b0 3b
       -0.009919926 -0.08080592 -0.84064555 0.005385421
0002e0 5c 56 98 3b c7 73 f7 3c ec ed 4b 3d a5 a2 90 bc
       0.0046489667 0.030206574 0.049787447 -0.01765568
0002f0 ee 35 0b 3c 41 f9 60 bd 67 96 d2 3e 52 8a f6 3d
       0.008496745 -0.054925207 0.41130373 0.12038101
000300 8b 47 1e be 76 cb 33 bf 8c 26 0e c0 58 a7 c9 bc
       -0.15456979 -0.7023233 -2.2211027 -0.024615929
000310 1c 4e 56 3c 75 ba 98 3c 7f 97 5a bd f3 18 17 be
       0.013080146 0.018643597 -0.053367134 -0.14755611
000320 d6 a8 ad 3c c2 3e 85 3d 69 7f e7 3c 58 fd 38 3c
       0.021198671 0.06506111 0.028258996 0.011290871
000330 dc 6b 9f bd fe 96 de 3d 00 1d aa 3d bb 15 a5 3d
       -0.077842444 0.10868643 0.083063126 0.080607854
000340 50 6d 83 3e 27 d3 0a 3e 51 b9 74 3d d0 20 47 3c
       0.25669336 0.1355711 0.059747044 0.012153819
000350 a2 22 29 3c 55 de 46 3e 05 27 3c 3e 76 df 59 3d
       0.0103231985 0.1942075 0.1837426 0.053191625
000360 b0 3f 75 bd 6c 1b bc 3d c3 cc 0e 3e ab 9f 7a 3e
       -0.05987519 0.09184918 0.13945298 0.24474971
000370 70 f4 f8 bc df cf f7 3b e8 cc d9 3d 5c b2 75 be
       -0.030389994 0.007562622 0.10634786 -0.2399382
000380 89 71 49 3e 67 db 7b be d3 50 87 be 61 db 95 bd
       0.19672216 -0.24595414 -0.2642885 -0.07317234
000390 cf 24 6f bc 05 90 d0 3d 93 fb f3 3c ef 3f 74 3e
       -0.014596178 0.101837195 0.029783046 0.23852514
0003a0 98 f2 af 3d a5 64 02 3e 9c 61 0b 3e 4d 99 94 bd
       0.08591193 0.12733705 0.13611454 -0.07255802
0003b0 94 f0 5a be 13 24 0d 3d b4 d5 a3 bd 9e af 82 be
       -0.21380836 0.03445823 -0.07999745 -0.2552461
0003c0 00 51 9a 3e c9 3a 00 3f 90 71 32 3b a2 3c c1 bd
       0.30139923 0.500897 0.0027228333 -0.09435393
0003d0 1c f0 d5 3c a4 73 7a bb 6c 99 aa 3c a7 6d 19 3d
       0.02611547 -0.00382159 0.02082511 0.03745809
0003e0 5b 0e 7f bd 5d ed 3d be 66 b8 1d be 76 1b 86 3c
       -0.06226955 -0.18547578 -0.15402374 0.016370516
0003f0 2f cf ec 3c 7d 1f 63 3e ab 40 26 be d6 b3 81 bc
       0.028907387 0.2217998 -0.16235606 -0.015832823

fc1.bias f4 [64]
000000 1b c9 0a 3e f9 ab 53 3d ab c5 6a bd cd 9d b6 3d
       0.13553278 0.051677678 -0.057317417 0.08916817
000010 0f 27 7b 3e 49 1f 33 3d 8b 70 ab bd 46 7b d1 3d
       0.24526618 0.043731008 -0.08371075 0.10228591
000020 84 35 0c 3d 19 bb 77 be 16 1a 5f 3d 43 9f 80 3e
       0.034230724 -0.24192466 0.054468237 0.25121507
000030 c5 cf 44 3e ee 0b d6 3d a0 b6 9c bd 3e 1f ae bd
       0.19219883 0.10451494 -0.076520205 -0.08502053
000040 0d 91 c1 3d fd 4a 4a bd a6 b8 e7 3a d6 3d 1d be
       0.09451494 -0.04938792 0.0017678931 -0.1535562
000050 d6 66 ed bc 37 36 91 3d a5 66 a3 bd 31 da 33 3c
       -0.0289797 0.07090419 -0.07978562 0.010977314
000060 2a 30 ca bd 79 88 6e 3d e3 c1 28 3c 94 ba 91 be
       -0.09872468 0.05823562 0.010300132 -0.2846266
000070 a2 9b 01 3e cd 55 15 3e 5e 61 0a be 43 ff 28 be
       0.12657025 0.14583512 -0.13513705 -0.16503625
000080 d9 46 1f 3e 40 9f ef bb 43 51 94 39 f2 4b 8d 3d
       0.1555437 -0.0073126853 0.00028289304 0.06899251
000090 7b 05 a4 bd 58 99 77 bb 7e 20 b4 3b 7d 25 3e be
       -0.08008858 -0.003778061 0.0054970374 -0.18568988
0000a0 db 82 56 be 13 47 ec bd 02 49 1b be ae 6d 24 3e
       -0.20948355 -0.11536994 -0.15164569 0.16057464
0000b0 8f 9c 1b 3d b3 a0 d7 bd c8 26 1f 3e b8 85 6e be
       0.037991103 -0.10528698 0.15542138 -0.23293197
0000c0 cb 24 52 be c7 7f 1f bd 81 8a 2e be 72 3a 00 3c
       -0.20521848 -0.038940217 -0.17045023 0.007826434
0000d0 ab a9 f3 bd 35 38 aa bd bd 80 32 be a7 41 8f 3c
       -0.11897596 -0.08311502 -0.17431922 0.01748736
0000e0 f4 69 bb 3d 18 9a 86 bd 40 f0 22 be 36 5b 09 bd
       0.09151068 -0.0657236 -0.1591196 -0.03353425
0000f0 5a 96 b1 3c 1c 46 a7 3d 59 5c fa bc da 61 97 3b
       0.021678139 0.08167669 -0.030561613 0.004619819

fc2.weight f4 [64, 64]
000000 43 02 de be 5b 1e a7 3c b5 a6 34 be 7e 47 68 3e
       -0.433611 0.020400217 -0.17641719 0.22683522
000010 77 f2 08 3e 7e 18 28 be 89 8d 50 bc 7f 86 fb bb
       0.13373743 -0.16415593 -0.012729057 -0.0076759453
000020 b7 38 2c bd 43 15 17 be 47 fd fb 3d a4 2d 72 be
       -0.042046275 -0.14754204 0.12304168 -0.23650223
000030 e9 87 d4 bd 4d 26 4c bd b9 7a c1 3d 73 7e 25 3e
       -0.10377485 -0.049841214 0.094472356 0.16161518
000040 8f 9c 83 3d 7c 0e 19 bf 18 54 35 be 5f 40 f8 3d
       0.064263456 -0.59787726 -0.1770786 0.12121653
000050 4c a6 93 be a8 fc da 3d 32 0e 8f 3d d0 c6 87 be
       -0.28837812 0.106927216 0.069851294 -0.2651887
000060 ec 72 a6 be 18 fe 86 bd e8 0d 10 3f 6a da b9 3d
       -0.32509553 -0.06591433 0.5627122 0.09074862
000070 12 65 0a 3e f4 da aa bd b5 0a 9d be 4b 50 ed 3d
       0.13515118 -0.08342543 -0.3067223 0.1158758
000080 68 ce 6f 3e 33 60 74 3d 12 e9 7c bd 0c 41 e8 bc
       0.23418581 0.059662055 -0.06174571 -0.02835133
000090 57 ab 9e be 19 d7 38 3e 1c 6e 66 3b 7a a3 18 3e
       -0.30990097 0.18050803 0.0035160845 0.14906111
0000a0 29 ee af bd a8 e1 5f ba 6e 2b 53 be be 8b 9f 3c
       -0.08590347 -0.00085404003 -0.20622036 0.019475814
0000b0 63 16 54 3d 13 aa ed bc ae 3c c0 bd f7 7a ae bd
       0.051779162 -0.029011762 -0.09386574 -0.085195474
0000c0 8f db 12 be 67 f2 b9 3d d6 f4 e3 be 01 c3 92 bd
       -0.14341567 0.09079438 -0.44522732 -0.071661
0000d0 ab b9 c1 bc 98 3c b7 3e 20 7c 98 be 18 69 ae bd
       -0.023648104 0.35788417 -0.297822 -0.08516139
0000e0 0f 84 42 bd 28 93 8a 3c d4 a4 0b bf be dc 9f be
       -0.047489222 0.016915873 -0.5454838 -0.312231
0000f0 d8 d1 3d 3e af 7c 9d 3e da 4a 3f 3e 59 9a a9 bd
       0.1853708 0.3075919 0.18680897 -0.082813926
000100 22 e6 26 be 67 f6 c3 3c 26 23 ac be 4e ec 52 be
       -0.16298726 0.023921205 -0.33620566 -0.20597956
000110 46 ec 11 3e f0 c4 37 3e 78 f5 8a bd a3 11 89 3b
       0.14250287 0.1794622 -0.06785101 0.0041830107
000120 bb 1c 6e bd 33 82 0d 3e 8c 63 76 bc c9 cf bf 3e
       -0.05813287 0.13819198 -0.015038382 0.37463215
000130 ac b9 1f be 18 8d b2 3c 2f 3e 45 3e 6d a4 16 3f
       -0.15598172 0.021795794 0.19262002 0.58844644
000140 86 e7 6b 3e 2c ba 2f 3d 6c 5d 8b bd 47 ed 6a 3e
       0.23037538 0.042902157 -0.06804928 0.22942077
000150 29 ed 91 3d 14 21 03 be 2f 06 96 3d da 1f 28 be
       0.07125313 -0.12805587 0.07325398 -0.164184
000160 81 eb 17 3e 38 dd 8e 3d 57 47 d0 be 3b 3a 91 bd
       0.14835931 0.06975788 -0.40679428 -0.07091185
000170 b0 13 9f bd 32 6a 71 b8 49 49 cb 3c 34 57 7f bc
       -0.07767427 -5.755778e-05 0.024815219 -0.015584756
000180 a7 4c 20 3d 6c bc af be 55 38 09 be 32 27 07 3d
       0.0391356 -0.34323442 -0.13400395 0.032996364
000190 30 05 10 bd c6 5c 0d 3c 1e cb de 3e 09 f3 5b be
       -0.035161197 0.008628076 0.4351434 -0.2147943
0001a0 69 d7 77 bd 1b 4b 99 3e d0 cd 87 3d 89 a5 52 be
       -0.060508166 0.29940113 0.066310525 -0.20570959
0001b0 ce c8 22 be 7b 2f a6 bd 63 4f 0c 3a f5 f2 1d 3a
       -0.15896913 -0.08114525 0.0005352406 0.0006025278
0001c0 58 85 d3 3d df 5c 13 3e 25 66 75 3d b4 dd f0 3d
       0.10328168 0.14390896 0.059911866 0.117610365
0001d0 78 33 44 be 36 ab c9 be d7 5f 16 3d 12 cd 0a 3e
       -0.19160259 -0.39388436 0.036712494 0.1355479
0001e0 16 48 49 be 44 b1 2c be 86 0d 39 3e aa bc 7d be
       -0.19656405 -0.16864496 0.18071565 -0.24779001
0001f0 47 a7 56 be 9d 27 8c be 41 f7 92 be ca 20 5c bd
       -0.20962249 -0.27373973 -0.28704265 -0.053742208
000200 2f 8d d4 bd af dc 61 bd 87 03 c8 bd c4 61 66 3d
       -0.10378491 -0.0551421 -0.09766298 0.05624558
000210 08 82 12 be 82 13 f2 3d b0 33 8f 3c 84 14 57 bd
       -0.14307415 0.11820127 0.017480701 -0.0525098
000220 97 3f 26 3e f6 5c 93 bd 55 af b3 bc 31 7f 5e 3e
       0.16235195 -0.07195465 -0.02193419 0.21728207
000230 ae e2 0b 3e e5 8a 67 3d b0 04 cb bd 18 04 5e 3e
       0.1366069 0.056528945 -0.099130034 0.21681249
000240 7f 9c 4a be c5 c3 87 3b ad 05 fe 3c 24 9a b5 3d
       -0.19786261 0.0041432106 0.031008566 0.088672906
000250 89 ac 2e 3c a0 48 63 3e 21 b7 0d 3d e5 22 7c 3e
       0.010661253 0.22195673 0.034598473 0.24622686
000260 65 b6 68 3e dc 1e 9a 3d 44 99 9d 3e 64 84 07 bd
       0.22725828 0.07525417 0.30780995 -0.033085242
000270 46 69 99 3d 24 65 26 3e f0 bc 4c 3d 73 3a 0c be
       0.074907824 0.1624952 0.049984872 -0.13694172
000280 4f e2 8e bd 0e 4e 77 bd 79 78 07 be 45 5f 16 3d
       -0.06976759 -0.060377173 -0.1322955 0.03671195
000290 a5 74 ff 3d 08 69 5e 3e c5 51 5c bc 37 a6 59 3e
       0.1247342 0.21719754 -0.01344723 0.21254812
0002a0 14 b1 3b 3e cd b1 e6 3c 81 41 07 3b 9b 43 a5 bd
       0.18329269 0.028160954 0.0020638409 -0.08069535
0002b0 65 63 88 3c 74 0c 5a 3e e1 4f d3 3d c6 c5 0b bc
       0.016648958 0.21293813 0.1031797 -0.00853104
0002c0 1f fc 8c 3d e7 75 43 be ca 9b ed bc f2 d8 01 3e
       0.06884026 -0.19087945 -0.02900495 0.12680414
0002d0 de 1a ca bd 6e 3a c3 be 63 99 82 be 7a 53 0e 3d
       -0.09868406 -0.38130516 -0.2550765 0.03474758
0002e0 4d ed 8c 3a e0 15 b3 be 1b ed ec 3d e9 12 23 3e
       0.0010751873 -0.34977627 0.11568662 0.15925182
0002f0 bc 4a 06 3d 3c 87 ef 3d c9 9a 2f be 80 24 d0 bd
       0.032786116 0.11695716 -0.1714889 -0.10163212
000300 e0 f7 06 3e bd f5 2a be 3a 05 69 3d 31 a0 f6 3d
       0.13180494 -0.16695304 0.05688975 0.12042273
000310 f1 63 f6 3c 46 3a 05 be 21 5b 9e be a5 b4 1c be
       0.030076953 -0.13010511 -0.309289 -0.15303285
000320 8d a0 66 3d a0 42 8f be cd f1 84 bd ad 65 05 3e
       0.056305457 -0.27980518 -0.06491432 0.13027067
000330 b6 69 e5 bc bd 29 09 3e db af 08 be 1b 90 09 bf
       -0.028004508 0.13394828 -0.13348334 -0.5373551
000340 02 ec df bc 67 86 54 be 95 7d 33 bc e1 d4 8c bd
       -0.027334217 -0.20754395 -0.010955234 -0.06876541
000350 ff 17 6a be db 33 fc 3d 7f 0d a5 3c 7e 46 a1 3e
       -0.22860716 0.12314578 0.020148037 0.31499094
000360 00 e6 8b be 50 c6 c6 be a9 f6 c3 3e 46 8c ed bc
       -0.27323914 -0.38823175 0.38274124 -0.028997552
000370 06 80 d7 3d 09 76 2d be 3b c0 5c be 29 a5 89 be
       0.105224654 -0.16939558 -0.21557705 -0.2688382
000380 e0 5a e5 bb c3 37 7a be 1c 52 63 3d bd 58 c6 bc
       -0.0069993585 -0.24435334 0.055498227 -0.024212236
000390 1e 1f 80 bb 8c 59 0c 3d f5 06 07 3f 1d c3 8a bc
       -0.0039099595 0.034265086 0.5274499 -0.01693874
0003a0 87 2d c1 bd 30 a6 c9 bd 18 67 34 3e d1 8e d3 be
       -0.09432512 -0.09846151 0.17617452 -0.41319898
0003b0 08 77 99 bc cb f4 45 3e 7a 97 42 bd e9 b5 16 3d
       -0.018733516 0.19331662 -0.04750774 0.036794577
0003c0 27 4f 42 3b b0 21 a7 be dd 4a 13 be 70 13 86 3e
       0.002964923 -0.3264289 -0.14384027 0.26186705
0003d0 8b 26 af bb 11 b2 89 bd 8c 62 61 bd aa 42 d3 3d
       -0.005345171 -0.067234166 -0.055025622 0.103154495
0003e0 4f 81 9c be 62 28 3f be f3 97 e2 3d 70 19 44 3c
       -0.30567405 -0.18667749 0.11064138 0.011968955
0003f0 7d 3f 34 be 4b fb 4c be f1 3f ad 3c 4c 41 25 3d
       -0.17602344 -0.20017736 0.021148654 0.040345475

fc2.bias f4 [64]
000000 d1 bd f2 3d 48 c0 fa 3d 67 ad 9c 3e 0c 5c de bc
       0.11852611 0.12243706 0.30601045 -0.0271435
000010 c9 5e 0e 3e 38 dd 6a be 26 69 e5 bd 95 17 64 3d
       0.13903345 -0.22935951 -0.11201696 0.055686552
000020 27 02 db 3e b8 2c 42 3f 7d 9b 31 be ef 5f 95 3e
       0.4277508 0.75849485 -0.1734447 0.29174754
000030 34 e6 79 3e 34 a0 18 be e2 11 d1 bb 7e 83 0c 3d
       0.24404222 -0.14904863 -0.0063803056 0.03430509
000040 21 cf 02 3e 85 4c db bd f3 c8 69 be cb 7f 8d 3d
       0.12774326 -0.10707954 -0.22830562 0.0690914
000050 81 6e d6 3e 0e 56 58 3f 85 b0 88 be 2f 3d 38 be
       0.41881183 0.8450631 -0.26697174 -0.1799209
000060 3f 8b d2 bd c2 c0 33 be 9f 73 d7 3d 80 e2 fa bd
       -0.10280465 -0.17554 0.105201 -0.12250233
000070 79 e0 b9 3e 51 e3 76 3d bc 6f 60 3e 41 0a 02 bd
       0.36304072 0.06027538 0.21917623 -0.03174806
000080 e7 c8 d9 3c 58 87 89 3e 3a d8 6e 3d f3 63 c0 3e
       0.026585056 0.26861072 0.05831168 0.37576255
000090 1f e3 77 3e 2a 43 16 be 09 d0 ff 3d 90 b3 b6 bc
       0.24207734 -0.14674059 0.124908514 -0.022302419
0000a0 35 d6 bb 3b ed 9f 54 3f 80 ce ea 3e 5a e8 49 be
       0.0057323226 0.8305653 0.45860672 -0.19717541
0000b0 e3 b9 35 3e 9e 7e 93 be 24 6b 03 3f 87 81 e8 3b
       0.17746691 -0.2880754 0.5133536 0.007095519
0000c0 90 4b 83 3d e7 20 20 be 5f 75 b6 bd ac 37 31 3f
       0.06410897 -0.15637551 -0.089091055 0.69225574
0000d0 c4 48 7b be 9c c0 77 be 15 2f ec 3e fb 92 d4 3c
       -0.24539477 -0.24194568 0.4612967 0.025948992
0000e0 67 cd 06 be 1b 71 80 be a0 a4 1b 3e e2 3f 47 bd
       -0.13164292 -0.25086293 0.15199518 -0.048644908
0000f0 0e 34 ee bd 02 9d ba 3e 0e 72 80 3e d1 c3 b7 3d
       -0.116310224 0.36447912 0.25087017 0.08972896

fc3.weight f4 [4, 64]
000000 0d db 32 3e 34 5c 11 3e 59 9f b0 3d 36 d9 80 3c
       0.17466374 0.14195329 0.08624143 0.015728574
000010 24 12 fe 3e 93 d8 82 be f1 dc d7 3d 3b f2 85 be
       0.49623215 -0.25555858 0.10540188 -0.2616137
000020 cd dd 8e 3e 86 04 72 3e 76 42 57 be db ae a4 3e
       0.27903596 0.23634538 -0.21021447 0.32164654
000030 c9 bc bd 3d 1a a1 6e bd cf f3 99 3e 84 d6 62 3e
       0.092645235 -0.058259107 0.30068824 0.22152144
000040 5c 79 3d 3e 97 ab a7 be 15 da af be 81 75 ae 3e
       0.18503326 -0.327481 -0.3434607 0.34074023
000050 15 ab 0a 3e bb f6 6f 3e 1b 42 1c be 71 b5 b9 be
       0.13541825 0.23433964 -0.15259592 -0.3627124
000060 b2 c4 2a 3e 27 4b 6c 3d 75 42 1e bf c8 b4 24 be
       0.16676596 0.05768886 -0.61820155 -0.16084588
000070 9a 9b 3e 3e f7 56 42 3f 78 b4 bc be ad 27 7a 3d
       0.18614045 0.7591395 -0.36856437 0.061072994
000080 92 90 a5 3e b3 c3 43 3e 00 9d 30 3d 60 ed f5 3d
       0.3233686 0.19117622 0.043118477 0.12008166
000090 7b 0e 0e 3e 7d e1 ed bc c0 85 19 3e 84 e1 9a 3e
       0.13872711 -0.029038185 0.14992428 0.3025018
0000a0 ca 4a db 3d ef 4a 5f 3e c8 c8 ab 3e 28 6d 17 bd
       0.10707624 0.21805929 0.3355162 -0.036969334
0000b0 4b 43 80 3e f9 35 18 be 13 68 77 3e 93 f3 35 3e
       0.2505134 -0.14864339 0.24160795 0.17768697
0000c0 4a de ad bb 48 23 0f be 5b 63 d5 3d 0f 37 86 3e
       -0.00530604 -0.13978302 0.10419341 0.2621388
0000d0 67 ae 52 bd a4 20 a0 be 44 c2 80 3e 30 cb 16 3c
       -0.051435854 -0.31274903 0.25148213 0.009203717
0000e0 cd 4a b8 be 63 a2 89 bd 3c 69 cb 3e 50 94 c1 3d
       -0.35994568 -0.06720426 0.39728725 0.094521165
0000f0 29 6e 94 bd fd 63 62 3e bd 3f 31 3e fd dd 99 3d
       -0.07247574 0.22108455 0.1730947 0.07513044
000100 63 db 44 3e fc 33 31 3e f7 b8 08 3e db f6 48 3d
       0.19224314 0.17304987 0.13351808 0.049063545
000110 ee b4 c5 3e b7 1c 62 be d2 f7 83 bb dc ff 50 3e
       0.386146 -0.22081266 -0.004027345 0.20410103
000120 e2 b2 fc 3d f2 22 28 3e 92 fb 8f bd bf e0 89 3e
       0.12338807 0.1641958 -0.07030405 0.2692928
000130 05 d2 2f 3e 6a dd 7f 3d db 15 75 3e 02 95 48 3e
       0.1716996 0.062467016 0.23934118 0.19588092
000140 54 8c 72 3e 1b 40 b8 3e 8c b6 98 be 4d c2 f6 3e
       0.23686343 0.3598641 -0.29826772 0.48195115
000150 15 48 29 3e 65 d8 97 3e 86 ca b8 3d 0a 9d b8 bd
       0.16531403 0.29657283 0.09023003 -0.09014328
000160 4d 8e 32 3e 64 be c4 3b 95 41 1b 3e 4c 02 97 be
       0.17437096 0.0060041416 0.15161736 -0.2949394
000170 d1 03 94 3e bc 72 03 3f f6 e8 b6 3d 88 13 0c 3e
       0.28909162 0.51346946 0.089311525 0.13679326
000180 d6 20 8f 3e 3b 1e de 3d f7 80 95 3d e4 d8 c2 3d
       0.2795474 0.1084561 0.07299989 0.09514025
000190 59 d9 ff 3d a1 a3 ef be ca 2b 06 3e cc 25 06 3f
       0.12492628 -0.46804526 0.13102642 0.52401423
0001a0 64 b5 26 3e f4 3f 99 3e b2 ff 78 3e 3d 7c 47 be
       0.16280133 0.29931605 0.2431629 -0.19480987
0001b0 84 54 44 3e e7 46 c2 bd 1a 14 57 3e 7a 1d 98 3e
       0.19172865 -0.0948618 0.21003762 0.2970999
0001c0 c3 b0 8e ba 8f e0 3b be f7 1e 76 3c 6b f8 1d 3e
       -0.0010886419 -0.18347381 0.015022031 0.15426795
0001d0 d3 b5 42 bd bd e5 73 be 28 f0 97 3e 2c a5 d2 bd
       -0.047536682 -0.23818107 0.29675412 -0.1028541
0001e0 a7 77 66 bd 5f e6 91 be 1c 6b 88 3e 8a 96 a6 bd
       -0.056266453 -0.28496072 0.26644218 -0.08134182
0001f0 9f da 27 be 82 0b 35 3e 93 67 95 3e d6 95 1e 3e
       -0.16391991 0.17680171 0.29180583 0.15486845
000200 d7 b5 7c 3d 31 83 6b 3e 96 15 68 3e 5c a6 61 3e
       0.061696853 0.22999264 0.22664484 0.22036117
000210 b6 da b5 3e 7a 4a 1e 3d 4b 7b f0 3d 33 7f 6c 3e
       0.35518426 0.038645245 0.11742266 0.23095398
000220 23 7b b2 3d 1d ba 62 3e 66 2f af be 29 14 1c 3d
       0.08714893 0.22141309 -0.3421585 0.038105164
000230 79 fa 4e 3e 4e cb cd 3d 73 9b 36 be dc b8 94 3e
       0.20212735 0.10048543 -0.17832737 0.29047287
000240 bb 4e c3 3e a5 e5 55 be be 67 16 be 52 ec e8 3d
       0.38146004 -0.20888384 -0.14688012 0.113731995
000250 1b 8f 55 3d 4a b9 95 3e 09 c1 62 be 0f 0d b1 bd
       0.05213843 0.29242927 -0.2214395 -0.08645069
000260 15 96 59 3f c4 d6 1a be 92 f2 da bd ac d0 b0 be
       0.8499463 -0.15120989 -0.10690798 -0.34534204
000270 a9 a6 9f 3e b9 cf 0e 3f ef fa 4a be 5d 1f 93 3b
       0.3118184 0.5578571 -0.19822286 0.004489823
000280 32 2f 77 bc 08 85 10 be 6b a5 9a 3e 29 1c 91 3e
       -0.015086936 -0.14113247 0.3020433 0.28341797
000290 ac c1 cb 3c e2 16 36 bf c2 6c f0 3d 08 18 ed 3c
       0.024872623 -0.71128666 0.11739494 0.028942123
0002a0 7c 77 9c 3e 0c 14 87 3e 6f 24 51 3e 45 3d d0 3d
       0.3055991 0.26382482 0.20424055 0.10167936
0002b0 81 6c 95 3e 75 68 34 be fd 8e 60 3e a5 d1 6b 3e
       0.29184344 -0.17617972 0.21929546 0.23029192
0002c0 f8 d5 7b 3e 38 c3 13 be c8 40 e6 bd 24 82 ac 3e
       0.24593341 -0.14429939 -0.11242825 0.3369304
0002d0 55 73 29 be 18 b0 de 3d d5 ab 28 3e f0 e1 38 3e
       -0.16547902 0.10873431 0.16471799 0.18054938
0002e0 a8 d8 bc be 1e 31 12 be be ab c1 3d e3 a8 4d be
       -0.36884046 -0.14276549 0.09456585 -0.20083956
0002f0 56 8e cf be 3e 24 2d 3e 90 c4 55 be 59 b2 20 3e
       -0.4053828 0.16908357 -0.20875764 0.15693034
000300 e5 a0 e0 3e 23 7e eb 3d 9b 34 38 3e 7b 75 9c be
       0.43872753 0.11498668 0.17988817 -0.3055838
000310 f2 51 7a 3e c5 53 1f bd ae d3 69 bd 0a 20 21 be
       0.24445322 -0.03889825 -0.05708664 -0.15734878
000320 ef 7b 76 3e 70 29 8c 3e 59 f3 46 bd 96 8d b2 3c
       0.24070714 0.27375364 -0.04857192 0.021796029
000330 d9 30 e6 3d d5 b9 de be 67 5e 24 3e 4e 9d e4 3d
       0.11239786 -0.43501154 0.16051637 0.11162816
000340 42 f5 46 3e 90 7b 46 be 28 59 4b 3d 28 f4 19 3f
       0.19429496 -0.19383073 0.049645573 0.6013818
000350 e2 97 1f 3e c1 da 94 3e b1 a7 18 be e6 bd ce 3c
       0.15585282 0.29073146 -0.14907719 0.025237035
000360 f0 bd 88 3c ea aa 5e be e7 bd 84 3e cd 32 67 bd
       0.016692132 -0.21744886 0.25926134 -0.05644493
000370 06 56 65 3e e3 ff 23 bc 9b bb c5 be 1c e3 9e 3e
       0.22396097 -0.010009739 -0.38619694 0.31032646
000380 a5 77 f1 3e bc e5 21 3e 15 b8 2a bc 97 c3 03 3e
       0.47161594 0.15810293 -0.010419865 0.1286758
000390 c0 f9 23 3a a6 f9 d9 3d dd b1 10 be b7 42 20 3f
       0.0006255172 0.1064332 -0.1413035 0.626018
0003a0 c8 de 57 3e 8b 9f 97 3e 22 43 91 3e c9 dd 88 be
       0.21081078 0.2961391 0.2837153 -0.2673171
0003b0 18 4d 5c 3e 19 f0 96 be 9b 5a cd 3d 09 00 1a 3e
       0.21513784 -0.29480055 0.10027047 0.15039076
0003c0 95 9a 4b 3e 2a ed 01 bf ed 20 98 3d d3 75 8e 3e
       0.19883187 -0.5075251 0.07428155 0.27824268
0003d0 86 00 80 3e 47 b7 d5 be 30 d2 5e 3e 26 85 e0 3d
       0.250004 -0.41741392 0.21759868 0.10962896
0003e0 aa 92 e3 bd 7c b8 7e be 95 39 53 3c 6c 66 03 bf
       -0.11111958 -0.24875063 0.012892147 -0.5132816
0003f0 7a aa 8c be 3f 14 cd 3d 54 e8 95 3d ad 82 82 3e
       -0.27473813 0.10013627 0.07319704 0.25490323

fc3.bias f4 [4]
000000 b7 40 fb 3e e0 a2 ce 3e 32 3b c0 3e 86 c4 d7 3e
       0.4907281 0.4035864 0.37545162 0.42142123
