dueling_checkpoint.pth (torch_old, 155694 bytes, 9 tensors)

feature.0.weight f4 [128, 37]
0.16355516 -0.078200735 -0.33164743 -0.017329864 -0.2268726 0.18046273 -0.02966783 0.04254576
0.013132457 0.08746815 0.067790195 -0.032362424 -0.20395906 -0.3660642 -0.5128885 0.019141937
0.11134497 0.11280749 -0.3271393 -0.14232641 0.0085300645 0.19482252 0.020850658 0.012742056
-0.092834026 0.08776775 0.20591752 -0.34821373 -0.29687294 0.06151574 -0.12872492 0.06453317
0.029084427 -0.09177542 -0.34402785 -0.16610186 -0.07033677 0.2486117 -0.17024782 0.026494248
-0.48389855 -0.89461017 0.12810247 -0.21937558 -0.2171551 -0.23079395 0.22213152 -0.063739225
-0.08602816 0.037680715 0.13234742 0.16054256 -0.051802676 0.018454818 0.091979235 0.15667972
0.001496562 -0.105599 -0.16021936 -0.061154082 -0.040021934 0.06391427 -0.009620649 -0.08476598
0.091014415 -0.09617952 -0.09181578 -0.0015749438 0.024535226 0.18758015 -0.20795542 -0.046862975
0.08971024 0.019067485 -0.21263795 0.09208973 0.2640536 0.14117798 0.3139327 -0.14987159
-0.16296941 0.23644917 0.0803767 -0.2926756 0.07183309 0.14571051 -0.14855666 -0.22289038
-0.20858127 -0.09232326 -0.15072976 0.08546307 0.27827835 0.2390853 -0.25784773 -0.21471056
0.080980055 0.22060636 -0.21409267 -0.24864562 0.24326916 0.13989848 -0.056540467 0.13196315
-0.37402222 0.052146867 0.010895386 -0.2127408 -0.24946378 -0.085557036 -0.014958532 0.17481743
-0.08591755 0.2377496 -0.02173212 -0.5726521 -0.007451211 0.01913771 -0.091211356 0.24241315
0.09470462 -0.05326674 0.0048540602 0.19554663 -0.20582943 -0.20055242 -0.04299216 -0.0153173255
-0.081785835 0.011913655 0.035889458 -0.011651289 -0.016695017 0.061990667 0.16493598 -0.059362333
-0.0054283747 -0.10936539 0.051579554 0.35565096 0.19542676 0.27199906 0.2160574 -0.094242714
-0.26202568 -0.35188213 -0.007386616 0.009496235 -0.26282722 -0.038098384 -0.04967217 -0.4743489
-0.3715909 -0.17386606 -0.035751373 -0.02022842 0.26728493 -0.26367062 0.0148039395 -0.47313708
-0.23739433 0.096946724 -0.41031414 -0.1873627 -0.23867325 0.09019783 -0.6412508 -0.11733022
-0.061250933 -0.50328755 0.17687584 -0.29426378 0.23166262 -0.038270008 -0.1735395 0.008792905
0.10365268 0.16098496 0.25400954 -0.28905538 -0.12566173 -0.44001374 -0.005515184 -0.17906052
0.03267439 -0.14938226 0.012264072 -0.02440656 -0.16988868 0.3547339 -0.09073062 0.31589195
-0.12103734 -0.068559185 -0.39377573 -0.095584966 -0.10555652 -0.08482738 -0.09994621 -0.14027533
-0.084667094 -0.03915982 -0.015787963 -0.14096911 -0.110743724 0.09583317 -0.013619506 -0.16816604
0.2287484 0.075549066 -0.16739962 -0.011499602 0.19783601 -0.41585943 -0.26745462 0.018200602
0.044240154 -0.52404857 -0.09540158 -0.37200588 0.15117401 0.06479021 0.10111766 0.13521309
-0.1182816 -0.20427588 -0.46026936 -0.3355203 -0.013016051 0.0001697208 0.18685807 0.08463973
0.009303778 0.043025687 0.23999628 -0.15272295 0.12565441 -0.13572916 -0.16463034 0.13847965
0.043606523 0.24163899 0.011920269 -0.060428523 0.09085987 -0.19634649 -0.012624592 -0.38962203
0.17816444 0.0008142552 -0.42712316 0.15423565 0.1348182 -0.063555494 -0.06796922 -0.11098771
00000000: 017b 273e b527 a0bd b1cd a9be 5cf7 8dbc
00000010: 4a51 68be 39cb 383e f309 f3bc 7644 2e3d
00000020: 8429 573c 8022 b33d 96d5 8a3d 768e 04bd
00000030: a5da 50be c46c bbbe a94c 03bf 8dcf 9c3c
00000040: d508 e43d 9d07 e73d cd7e a7be 04be 11be
00000050: afc1 0b3c 8e7f 473e 00cf aa3c 0ec4 503c
00000060: c41f bebd 94bf b33d 0bdc 523e 1249 b2be
00000070: bbff 97be eef7 7b3d 77d0 03be f729 843d
00000080: 7742 ee3c c0f4 bbbd 6b24 b0be 9b16 2abe
00000090: b90c 90bd 1194 7e3e 7255 2ebe 770a d93c
000000a0: 8dc1 f7be 2c05 65bf 4b2d 033e fea3 60be
000000b0: e85d 5ebe 4055 6cbe 7276 633e b689 82bd
000000c0: 882f b0bd 1857 1a3d 1586 073e 4565 243e
000000d0: 0b2f 54bd 8f2e 973c 9c5f bc3d a670 203e
000000e0: 4a28 c43a 4a44 d8bd 8b10 24be b47c 7abd
000000f0: 0aee 23bd 7ce5 823d ed9f 1dbc c999 adbd
00000100: c465 ba3d c5f9 c4bd e909 bcbd 586e ceba
00000110: 19fe c83c 0315 403e 44f2 54be 64f3 3fbd
00000120: 01ba b73d 6a33 9c3c c3bd 59be 8a99 bc3d
00000130: 0932 873e f690 103e c9bb a03e f077 19be
00000140: 74e1 26be bb1f 723e 8a9c a43d 94d9 95be
00000150: 3a1d 933d 2335 153e 3d1f 18be 603d 64be
00000160: 5496 55be fa13 bdbd e758 1abe 4307 af3d
00000170: 807a 8e3e c7d2 743e 9e04 84be 16dd 5bbe
00000180: dfd8 a53d a2e6 613e 1c3b 5bbe f59c 7ebe
00000190: 8d1b 793e 8c41 0f3e fa96 67bd 5921 073e
000001a0: d77f bfbe f497 553d 9082 323c b9d8 59be
000001b0: 6f73 7fbe 8738 afbd a114 75bc 5703 333e
000001c0: 8af5 afbd a274 733e 8f07 b2bc 5499 12bf
000001d0: 4a29 f4bb b0c6 9c3c 05cd babd 273b 783e
000001e0: 7ff4 c13d 3a2e 5abd cf0e 9f3b 603d 483e
000001f0: f3c4 52be 9d5d 4dbe 8c18 30bd 85f5 7abc
00000200: 557f a7bd 7e31 433c d300 133d 0ce5 3ebc
00000210: fdc3 88bc ede9 7d3d fae4 283e eb25 73bd
00000220: 82e0 b1bb f6fa dfbd 1545 533d e217 b63e
00000230: f41d 483e 7643 8b3e 273e 5d3e 5302 c1bd
00000240: 3b28 86be e529 b4be 6d0b f2bb 1996 1b3c
00000250: 4a91 86be 0d0d 1cbd 0c75 4bbd dcdd f2be
00000260: 2a41 bebe f209 32be 0870 12bd 12b6 a5bc
00000270: 92d9 883e d6ff 86be 398c 723c 063f f2be
00000280: 8017 73be 018c c63d b214 d2be 02dc 3fbe
00000290: c366 74be a4b9 b83d 0329 24bf d44a f0bd
000002a0: 42e2 7abd 74d7 00bf f11e 353e bea9 96be
000002b0: f738 6d3e 03c1 1cbd 57b4 31be 1e10 103c
000002c0: db47 d43d 3ed9 243e 8a0d 823e 11ff 93be
000002d0: 78ad 00be 7b49 e1be b7b8 b4bb a45b 37be
000002e0: 95d5 053d aaf7 18be 3fef 483c 44f0 c7bc
000002f0: 4cf7 2dbe af9f b53e fad0 b9bd 97bc a13e
00000300: 6de2 f7bd c268 8cbd f99c c9be 0dc2 c3bd
00000310: 042e d8bd fab9 adbd 99b0 ccbd 56a4 0fbe
00000320: f165 adbd 0c66 20bd c255 81bc 355a 10be
00000330: 9bcd e2bd 2e44 c43d 5924 5fbc b833 2cbe
00000340: 053d 6a3e 78b9 9a3d ce6a 2bbe d468 3cbc
00000350: 8695 4a3e 87eb d4be d0ef 88be 6e19 953c
00000360: 2a35 353d 0c28 06bf e761 c3bd 8e77 bebe
00000370: 5ccd 1a3e bbb0 843d c716 cf3d 4d75 0a3e
00000380: a03d f2bd b22d 51be 6da8 ebbe 51c9 abbe
00000390: 4641 55bc 15f7 3139 b957 3f3e 9857 ad3d
000003a0: e06e 183c b43b 303d 96c1 753e 6863 1cbe
000003b0: 8dab 003e 96fc 0abe db94 28be 9ccd 0d3e
000003c0: c19c 323d 3670 773e 3b4d 433c e683 77bd
000003d0: bd14 ba3d 0e0f 49be 60d7 4ebc 8a7c c7be
000003e0: bd70 363e be73 553a e3af dabe f3ef 1d3e
000003f0: c80d 0a3e 6229 82bd 7233 8bbd 864d e3bd

feature.0.bias f4 [128]
-0.032092273 -0.016982116 -0.082482435 -0.03267985 -0.053786732 -0.1755118 0.080790095 0.0061630495
-0.10508338 -0.028175624 -0.08073525 0.04183973 -0.08761793 -0.021274777 -0.11309693 -0.13206485
0.044451848 -0.0020469825 -0.11245999 -0.100223936 -0.10714989 0.1123652 0.09322432 -0.028629731
0.019514324 0.15802978 0.08502994 -0.0781828 -0.028777117 -0.14042638 0.14875269 0.07798958
-0.0897986 -0.017803127 0.011895512 -0.19174144 -0.04530457 0.053054333 0.00972127 0.024424585
0.025207395 0.1644724 0.08475261 -0.008432249 0.019781273 -0.119948484 0.0073203505 -0.118489146
-0.12279164 0.019857995 -0.036529176 -0.067395024 -0.024567831 0.084763154 0.03744685 0.083249085
-0.09706758 -0.058022026 0.03736231 -0.08103326 -0.1538086 -0.0068961936 0.07441268 -0.14794582
0.21130109 -0.026317757 -0.0014722277 -0.10494528 -0.19886555 -0.09861088 -0.049482964 -0.07088254
0.06121346 -0.13766566 -0.06756166 -0.026883248 0.18046448 -0.123167776 0.05204128 -0.011630156
-0.03838571 0.004295489 0.05769597 -0.14804421 -0.031673435 0.13626459 0.05553053 -0.05625648
0.032782618 0.07678399 0.11479595 0.0021802352 -0.20172471 -0.21874264 -0.09684209 0.0935341
-0.060574148 -0.19685772 -0.16292949 0.12380639 -0.16127539 -0.17276898 0.055629656 0.14484483
-0.18030594 -0.21428822 -0.13250796 0.10497852 -0.20294505 0.016850732 0.050252944 -0.01245748
-0.10849068 -0.036800615 0.014520496 0.15980126 0.039896198 0.1267391 0.062225208 -0.07488582
-0.14993799 0.01688147 -0.07662643 -0.16158023 -0.08679065 0.022738941 0.10105779 0.06881847
00000000: 3073 03bd 141e 8bbc 8dec a8bd 4edb 05bd
00000010: 7a4f 5cbd 5eb9 33be 4775 a53d 68f3 c93b
00000020: f535 d7bd 91d0 e6bc 8658 a5bd 2360 2b3d
00000030: 0771 b3bd 7148 aebc 5d9f e7bd 023c 07be
00000040: 2413 363d ab26 06bb 6c51 e6bd 3542 cdbd
00000050: 6771 dbbd ba1f e63d 64ec be3d e688 eabc
00000060: 81dc 9f3c 8fd2 213e 2d24 ae3d 4e1e a0bd
00000070: fdbd ebbc efcb 0fbe a052 183e 00b9 9f3d
00000080: 54e8 b7bd ddd7 91bc 65e5 423c de57 44be
00000090: 4991 39bd 804f 593d f645 1f3c 1116 c83c
000000a0: bd7f ce3c 746b 283e c792 ad3d 6a27 0abc
000000b0: 560c a23c 8da7 f5bd 8ddf ef3b 70aa f2bd
000000c0: 2f7a fbbd 3cad a23c 9e9f 15bd 6706 8abd
000000d0: 7a42 c9bc 4e98 ad3d de61 193d 7f7e aa3d
000000e0: 5ecb c6bd 81a8 6dbd 3909 193d c4f4 a5bd
000000f0: 0080 1dbe 77f9 e1bb ad65 983d 1c7f 17be
00000100: 505f 583e 5698 d7bc c4f7 c0ba 8ded d6bd
00000110: 69a3 4bbe 80f4 c9bd a6ae 4abd dd2a 91bd
00000120: f7ba 7a3d 3af8 0cbe c55d 8abd 423a dcbc
00000130: aecb 383e 633f fcbd 3d29 553d 698c 3ebc
00000140: 563a 1dbd 2cc1 8c3b 9c52 6c3d e798 17be
00000150: 01bc 01bd f288 0b3e fb73 633d 326d 66bd
00000160: 1147 063d ed40 9d3d 241a eb3d 47e2 0e3b
00000170: ec90 4ebe 12fe 5fbe 2555 c6bd ce8e bf3d
00000180: 991c 78bd 1295 49be fdd6 26be 348e fd3d
00000190: 6025 25be 5aea 30be ecdb 633d 3452 143e
000001a0: 1fa2 38be 5f6e 5bbe 2bb0 07be fafe d63d
000001b0: d4d0 4fbe 8c0a 8a3c 08d6 4d3d 751a 4cbc
000001c0: 5d30 debd 3ebc 16bd 60e7 6d3c f1a2 233e
000001d0: 326a 233d e5c7 013e dcdf 7e3d bd5d 99bd
000001e0: 5889 19be 024b 8a3c 51ee 9cbd 4a75 25be
000001f0: 4cbf b1bd 0447 ba3c 63f7 ce3d b3f0 8c3d

advantage.0.weight f4 [128, 128]
-0.11862597 0.024701344 -0.20562388 0.10402236 0.19441059 0.039402176 -0.063825704 0.04069266
0.16060989 0.060229115 -0.110539764 -7.686282e-06 0.021976847 -0.020427825 0.004977015 -0.11152901
-0.031793766 -0.20112298 -0.5161013 -0.12485016 0.16783042 -0.30738905 -0.09336534 0.051421445
-0.07680989 -0.09421789 0.16830923 -0.0715728 -0.22229895 -0.26784787 -0.13234507 0.08677233
-0.06101935 0.16816844 0.1074331 -0.22963029 0.0021028854 -0.13992634 0.21190591 -0.13604896
-0.078855254 -0.04849547 -0.21431953 0.10753647 0.15943871 -0.18103114 -0.33212456 -0.033589732
0.09993368 0.022571828 -0.00201025 -0.07919578 -0.3613589 0.06557741 0.033439588 0.08786508
-0.5091008 0.079012744 0.11003996 -0.11843556 -0.15549745 0.15816797 0.121589355 -0.045182575
0.16161807 -0.31653592 -0.10377724 0.017978597 0.156308 -0.086051375 0.16183162 0.0936168
-0.066602126 -0.13659447 -0.67157173 -0.3191587 -0.07951438 0.015821531 0.11938466 0.06286248
0.064097956 -0.048835583 0.01581603 -0.28120065 0.009517157 -0.068777695 -0.004931662 -0.039286975
0.12456497 0.0031110856 -0.24186397 -0.30756313 -0.023980098 0.15250462 -0.07487641 -0.013287717
0.0057190238 0.0465466 -0.10626657 -0.13106576 0.012588015 0.06400001 0.16201857 -0.06302905
0.055765882 0.15666544 -0.28701216 -0.13862424 -0.069851436 -0.105663516 0.118403 -0.3752044
-0.07667682 0.14216073 -0.609413 -0.21442488 -0.15056692 0.10038074 -0.4451411 0.06904941
-0.08320568 -0.023545453 0.009477018 -0.15273142 0.12073422 -0.37486973 0.058806103 -0.12740187
-0.098501 0.2904096 0.1667757 0.03965679 -0.111879595 -0.26248762 0.17127955 0.17567125
-0.04010132 -0.47352085 -0.06980561 0.06411871 -0.112399824 -0.09836435 0.12641989 -0.39823046
-0.2081773 0.11001895 -0.0006988304 0.014566841 0.07167827 -0.03817783 -0.10294068 -0.13805257
-0.21503583 -0.17888243 0.12654544 -0.018806616 -0.1340981 -0.4737566 0.17766678 0.013553901
-0.16603385 -0.29422942 -0.3955386 -0.2440214 0.12008592 0.061186366 -0.27231187 -0.22961234
-0.19871806 0.01364883 -0.4001148 -0.089439265 -0.024397843 -0.12601286 -0.1635482 -0.064812735
-0.20022967 -0.18539506 -0.13499509 0.041866258 -0.0482894 0.13685179 -0.3162022 -0.23005874
-0.0022346734 0.09892908 -0.23040926 0.062282942 -0.44699383 -0.11117951 0.063751414 -0.100585945
0.036257062 0.14457361 -0.08189244 0.111937724 0.052841812 -0.05978028 0.0023922047 0.19720356
-0.114405155 -0.051997706 0.076922014 -0.1975551 -0.095008 0.12743144 -0.07495422 0.11439266
-0.2239524 0.08214247 -0.2807195 -0.05946682 -0.17646988 -0.118161336 0.075013615 0.20744173
0.2900084 -0.013303513 0.27197438 -0.2423111 -0.16879928 -0.1553167 -0.27213794 -0.03365653
-0.12518942 -0.13895106 -0.06865179 0.11166442 -0.15177923 0.044704873 0.12224942 0.08875781
0.0068929777 -0.43743485 0.21456309 0.0053473054 -0.21723245 -0.6091204 0.037758995 0.10116243
-0.060153555 0.0929374 -0.06155561 -0.05298738 -0.13350043 0.016695876 0.024750903 -0.18018435
0.09142621 0.14211254 -0.26438648 -0.30045635 -0.12713128 -0.22094192 -0.09152766 0.12506557
00000000: 2cf2 f2bd 795a ca3c 118f 52be ad09 d53d
00000010: 9213 473e 2d64 213d 0db7 82bd 59ad 263d
00000020: eb76 243e ceb2 763d ac62 e2bd 54f4 00b7
00000030: ca08 b43c 4158 a7bc 3a16 a33b 5269 e4bd
00000040: 2e3a 02bd 2ff3 4dbe 371f 04bf 71b1 ffbd
00000050: bddb 2b3e 1962 9dbe 5436 bfbd 4b9f 523d
00000060: 814e 9dbd 4ff5 c0bd 4159 2c3e c394 92bd
00000070: 56a2 63be 5b23 89be 7785 07be b1b5 b13d
00000080: 6def 79bd 5934 2c3e e305 dc3d 3424 6bbe
00000090: 90d0 093b da48 0fbe ddfd 583e 6b50 0bbe
000000a0: dd7e a1bd 30a3 46bd 9476 5bbe 153c dc3d
000000b0: e743 233e 3a60 39be 3b0c aabe 6395 09bd
000000c0: 07aa cc3d 8ee8 b83c 66be 03bb 6631 a2bd
000000d0: 0904 b9be 734d 863d f3f7 083d 9bf2 b33d
000000e0: 6e54 02bf 6fd1 a13d a15c e13d 588e f2bd
000000f0: b93a 1fbe c9f6 213e d703 f93d 5d11 39bd
00000100: 357f 253e ff10 a2be 2989 d4bd da47 933c
00000110: 340f 203e b43b b0bd 30b7 253e 2aba bf3d
00000120: b266 88bd 6cdf 0bbe 20ec 2bbf c568 a3be
00000130: 6fd8 a2bd 289c 813c f27f f43d 0bbe 803d
00000140: ca45 833d d207 48bd 9e90 813c 88f9 8fbe
00000150: daed 1b3c 52db 8cbd c899 a1bb 61eb 20bd
00000160: eb1b ff3d 5be3 4b3b 30ab 77be ea78 9dbe
00000170: e971 c4bc 2c2a 1c3e ce58 99bd b9b4 59bc
00000180: a666 bb3b a6a7 3e3d 4aa2 d9bd 1a36 06be
00000190: f63d 4e3c 7012 833d 32e8 253e 6015 81bd
000001a0: c46a 643d e86c 203e 42f3 92be 83f3 0dbe
000001b0: 450e 8fbd 1d66 d8bd 467d f23d cb1a c0be
000001c0: bd08 9dbd 9592 113e 7e02 1cbf 3292 5bbe
000001d0: 372e 1abe 6b94 cd3d 89e9 e3be c769 8d3d
000001e0: bd67 aabd 65e2 c0bc 7f45 1b3c a065 1cbe
000001f0: 8143 f73d edee bfbe abde 703d a375 02be
00000200: e4ba c9bd 91b0 943e 40c7 2a3e 296f 223d
00000210: 2121 e5bd c764 86be e863 2f3e 2ae3 333e
00000220: 4841 24bd 5371 f2be 3ef6 8ebd ac50 833d
00000230: e131 e6bd 4073 c9bd 3774 013e dde4 cbbe
00000240: 6e2c 55be 9e51 e13d b731 37ba c2a9 6e3c
00000250: 0fcc 923d 5b60 1cbd 90d2 d2bd a75d 0dbe
00000260: 5a32 5cbe f52c 37be 2195 013e 5510 9abc
00000270: 0351 09be 3a90 f2be 48ee 353e 2e11 5e3c
00000280: c704 2abe 3da5 96be 0984 cabe bfe0 79be
00000290: 9bef f53d 8e9e 7a3d 766c 8bbe 7f1f 6bbe
000002a0: bf7c 4bbe 589f 5f3c d9db ccbe ef2b b7bd
000002b0: fcdd c7bc 8409 01be 2e79 27be 8abc 84bd
000002c0: 0209 4dbe 34d8 3dbe 273c 0abe f47b 2b3d
000002d0: 1bcb 45bd e022 0c3e 41e5 a1be 8594 6bbe
000002e0: 9973 12bb 549b ca3d 68f0 6bbe 661c 7f3d
000002f0: 60dc e4be 15b2 e3bd 1a90 823d 0100 cebd
00000300: 4982 143d 1b0b 143e 39b7 a7bd 9b3f e53d
00000310: a870 583d 2bdc 74bd 89c6 1c3b bbef 493e
00000320: 404d eabd 8cfb 54bd 4a89 9d3d e24b 4abe
00000330: 8e93 c2bd 637d 023e 9981 99bd b346 ea3d
00000340: c753 65be 503a a83d 77ba 8fbe 7b93 73bd
00000350: 85b4 34be 92fe f1bd bda0 993d 9b6b 543e
00000360: fb7b 943e faf6 59bc 3a40 8b3e 6720 78be
00000370: b8d9 2cbe 570b 1fbe aa55 8bbe 6edb 09bd
00000380: a831 00be 3049 0ebe 4f99 8cbd 51b0 e43d
00000390: 046c 1bbe 751c 373d e75d fa3d a8c6 b53d
000003a0: 7dde e13b 76f7 dfbe 6db6 5b3e 7338 af3b
000003b0: 2f72 5ebe 51ef 1bbf 2da9 1a3d 402e cf3d
000003c0: 9363 76bd f755 be3d bc21 7cbd 4c09 59bd
000003d0: 56b4 08be cac5 883c 68c2 ca3c 3f82 38be
000003e0: aa3d bb3d f385 113e aa5d 87be 6ad5 99be
000003f0: b42e 02be 993e 62be db72 bbbd 3011 003e

advantage.0.bias f4 [128]
0.05315238 -0.052917063 -0.05732941 0.112536 -0.072887085 0.08050973 0.0379833 -0.12074384
-0.017392144 0.048015244 0.06856868 -0.122380614 -0.08044547 -0.039019886 -0.0030551674 -0.18091637
-0.09044491 -0.06853521 -0.0891406 -0.16050526 -0.14872083 -0.07097923 -0.07974175 -0.048878368
-0.0067038196 -0.04296713 -0.13541643 0.01356812 -0.068867914 -0.08352252 -0.07260665 -0.05941909
-0.009404905 -0.09856284 -0.05337737 -0.080461666 -0.03677005 -0.050806932 -0.05665276 -0.092689015
-0.13028619 0.04978077 -0.059273478 -0.013673231 -0.048899025 -0.066586465 -0.042987507 -0.023527998
0.0010821314 -0.24072947 0.0038275674 -0.15999497 -0.04749676 -0.13874899 0.03672749 0.050122626
-0.13371041 0.080855675 -0.12418485 0.027317654 -0.048464056 -0.10733431 -0.09495121 -0.13715614
-0.017088152 -0.028076632 -0.050791252 -0.05042026 -0.02209435 -0.16397722 0.078002505 -0.18563108
-0.12914467 -0.004912787 -0.085891575 0.008938493 0.027115662 0.0038611304 -0.14110042 -0.12758121
-0.122042716 -0.027752062 0.1584662 -0.027463926 -0.15465717 -0.12031129 -0.18983808 -0.032056592
-0.019171814 -0.087016635 -0.07420316 0.0303851 -0.15772533 -0.00926127 -0.06776118 -0.065567575
0.024153443 -0.058611356 -0.018953972 -0.09419065 -0.112861626 -0.0070588086 -0.12181336 -0.06827091
0.02589545 0.07925776 0.05683741 -0.09042356 -0.044444073 -0.09067372 -0.026549658 -0.0645912
0.035806883 -0.044144783 -0.0325573 -0.026801733 -0.052077726 -0.07691837 -0.053745627 -0.009258326
0.041026946 0.0683923 0.0109654665 -0.019483073 -0.081070684 -0.15766862 0.0028666314 -0.104877576
00000000: 4fb6 593d 90bf 58bd 3ed2 6abd 4679 e63d
00000010: d345 95bd 49e2 a43d 6094 1b3d 8c48 f7bd
00000020: f879 8ebc a2ab 443d bc6d 8c3d b0a2 fabd
00000030: 98c0 a4bd 51d3 1fbd 3439 48bb 2442 39be
00000040: 2e3b b9bd 305c 8cbd 598f b6bd 7e5b 24be
00000050: 464a 18be 8f5d 91bd a54f a3bd af34 48bd
00000060: b7ab dbbb 4dfe 2fbd 9baa 0abe d24c 5e3c
00000070: 9f0a 8dbd db0d abbd ccb2 94bd 6f61 73bd
00000080: 0817 1abc 50db c9bd 3ba2 5abd 16c9 a4bd
00000090: 319c 16bd ee1a 50bd b90c 68bd bdd3 bdbd
000000a0: be69 05be ece6 4b3d bfc8 72bd b005 60bc
000000b0: 584a 48bd 7c5e 88bd ab13 30bd cabd c0bc
000000c0: 4ed6 8d3a c981 76be edd7 7a3b b9d5 23be
000000d0: f68b 42bd 3714 0ebe 916f 163d 624d 4d3d
000000e0: 62eb 08be a997 a53d a054 febd 46c9 df3c
000000f0: 3f82 46bd 17d2 dbbd c875 c2bd a972 0cbe
00000100: 74fc 8bbc f700 e6bc 7d0a 50bd 7985 4ebd
00000110: 36ff b4bc a5e9 27be c7bf 9f3d 1316 3ebe
00000120: 803e 04be 72fb a0bb ece7 afbd c272 123c
00000130: aa21 de3c 050b 7d3b a17c 10be a6a4 02be
00000140: 88f1 f9bd 4b58 e3bc f744 223e 07fc e0bc
00000150: 735e 1ebe c465 f6bd ea64 42be c64d 03bd
00000160: 350e 9dbc c735 b2bd d4f7 97bd 2cea f83c
00000170: c082 21be 95bc 17bc 60c6 8abd 4b48 86bd
00000180: 71dd c53c 7612 70bd 5c45 9bbc 07e7 c0bd
00000190: ff23 e7bd 944d e7bb 4879 f9bd 9ed1 8bbd
000001a0: b222 d43c e451 a23d 58ce 683d fd2f b9bd
000001b0: fd0a 36bd 25b3 b9bd ab7e d9bc 6448 84bd
000001c0: 3daa 123d 29d1 34bd ce5a 05bd 4f8f dbbc
000001d0: 744f 55bd 6187 9dbd 6024 5cbd 3cb0 17bc
000001e0: df0b 283d 4311 8c3d 80a8 333c f79a 9fbc
000001f0: 6308 a6bd e273 21be 18de 3b3b 0eca d6bd

advantage.2.weight f4 [4, 128]
0.10430757 -0.26927444 -0.010818434 0.057818316 0.06407819 -0.015044759 0.11428777 0.03384231
0.049804542 0.14707194 0.03763653 0.052769728 -0.4515598 -0.08518896 -0.07148771 -0.047036387
-0.043934572 0.087376416 0.38797516 -0.28172335 0.045295358 -0.06444606 -0.23696125 -0.0664057
0.27374077 -0.00851789 -0.15593553 -0.09615109 -0.09660617 -0.10986334 -0.121983714 -0.15424858
0.14508519 0.30943272 0.15741037 0.19243577 -0.20447017 -0.24743167 -0.08224406 -0.14152028
0.13344973 0.12020841 -0.14857413 0.16632491 0.017678075 0.00048881985 -0.23669659 -0.25060803
-0.0401453 -0.10388071 0.004647127 -0.15360539 -0.16354334 0.043290664 0.074277185 0.04950853
-0.04838161 0.1388015 -0.033426758 0.12196361 -0.038958788 -0.034369256 -0.07411788 -0.21970037
-0.111096896 -0.4603562 -0.008062627 0.21895652 -0.072714195 -0.10503858 -0.0029560484 -0.11064439
-0.27716374 0.1595714 -0.0036494802 0.066339806 -0.18211998 0.070681244 -0.051058814 -0.51988333
0.0045942673 -0.18485735 0.07372984 0.08027301 0.21207218 0.3209736 -0.043898474 0.059247512
0.14777146 0.066988885 -0.15760909 -0.35322982 0.39201018 0.36520043 0.16665365 -0.052597668
0.14548822 -0.16231416 0.16416973 -0.3000977 0.22354165 -0.0053935987 -0.22140583 0.09158385
0.22252695 0.022983499 0.079884835 -0.08412087 0.14695355 0.07104533 -0.21440688 -0.076567374
0.086359434 -0.089999124 0.050774276 -0.097725585 0.344401 0.041152187 -0.284219 -0.25055322
-0.22126058 0.0012081936 0.122915275 0.15362278 0.3110416 -0.29535544 -0.16188042 -0.24572171
0.11952885 0.15968949 0.041037783 0.066773444 0.14217782 -0.13384435 0.06140954 0.4226365
0.049597904 0.13152196 0.27331454 -0.10354137 0.14266448 -0.06739882 -0.19427344 0.012510724
-0.027850974 0.04889259 0.27327973 -0.04842135 -0.034863085 0.1095167 0.05825751 -0.08798936
0.29265115 -0.045948416 -0.069791935 0.19559513 -0.09518991 0.037148986 -0.0486079 -0.034981772
0.0064829574 0.18572469 0.25445232 0.27980745 0.19005515 -0.1253734 -0.0703173 0.49250513
-0.051425125 0.009499079 -0.034883596 0.22594784 0.12455081 0.20571809 -0.2720922 0.2269438
0.059938464 -0.13345739 0.043895382 -0.09568294 -0.121575534 0.024187392 0.019224666 0.01906601
-0.060588956 -0.0022874125 -0.035590783 0.31527176 0.2204505 0.05754541 -0.04008965 -0.060529493
-0.08073143 0.08435692 -0.058739275 -0.087967515 0.024555327 -0.12650993 -0.12378739 -0.06169543
-0.19239457 -0.03407626 0.2607649 -0.057577875 0.12717879 0.10509688 0.2683686 -0.01741284
0.0756989 0.008525004 0.12943786 0.08123149 -0.032023605 0.19008246 -0.1850476 -0.14291361
0.1943401 -0.20464993 -0.055395 -0.0075208363 0.47095865 -0.03519897 -0.18194826 0.18716401
-0.076326266 -0.0834558 0.52737087 -0.04191171 0.21193211 -0.10349591 0.059223164 0.11566106
0.27806643 0.03105815 0.12267609 -0.12482587 0.21995248 0.19940268 0.12115712 -0.09069189
0.05717062 0.00756744 0.041796647 -0.09855251 0.35970825 -0.05869047 -0.069819845 0.14344554
0.16940133 -0.052035127 -0.057150714 0.14105724 0.18247513 0.017713806 -0.058552675 -0.13494538
00000000: 359f d53d 57de 89be cd3f 31bc e6d2 6c3d
00000010: 6d3b 833d 4b7e 76bc b50f ea3d 3c9e 0a3d
00000020: d9ff 4b3d 079a 163e c328 1a3d 1225 583d
00000030: d932 e7be 8d77 aebd 2668 92bd 3aa9 40bd
00000040: bdf4 33bd 68f2 b23d aea4 c63e 0b3e 90be
00000050: a087 393d 4cfc 83bd f8a5 72be b6ff 87bd
00000060: c027 8c3e 9f8e 0bbc 90ad 1fbe ddea c4bd
00000070: 75d9 c5bd 0800 e1bd 99d2 f9bd 57f3 1dbe
00000080: 3691 143e f76d 9e3e 2f30 213e e20d 453e
00000090: a160 51be ba5e 7dbe 936f a8bd b1ea 10be
000000a0: 0ca7 083e d42f f63d d123 18be 1451 2a3e
000000b0: 9cd1 903c 2524 003a 9760 72be b24f 80be
000000c0: 666f 24bd 69bf d4bd ed46 983b bb4a 1dbe
000000d0: e877 27be 8d51 313d a31e 983d 75c9 4a3d
000000e0: cc2b 46bd fb21 0e3e 7fea 08bd 0fc8 f93d
000000f0: 4093 1fbd c7c6 0cbd 1dcb 97bd 22f9 60be
00000100: c586 e3bd cfb3 ebbe 1c19 04bc 2336 603e
00000110: 2eeb 94bd 781e d7bd 43ba 41bb 8799 e2bd
00000120: 68e8 8dbe af66 233e 1e2c 6fbb 2add 873d
00000130: a97d 3abe 54c1 903d 0c23 51bd 1317 05bf
00000140: 828b 963b 3f4b 3dbe acff 963d 2d66 a43d
00000150: 7329 593e a756 a43e e3ce 33bd 85ad 723d
00000160: 6751 173e 7831 893d 4764 21be 8ada b4be
00000170: 8fb5 c83e 8dfb ba3e 41a7 2a3e a770 57bd
00000180: ddfa 143e af35 26be 1c1c 283e 68a6 99be
00000190: 1ae8 643e c9bc b0bb 36b8 62be 5090 bb3d
000001a0: 1bde 633e e447 bc3c a99a a33d 9047 acbd
000001b0: fe7a 163e 3780 913d 7a8d 5bbe 5bcf 9cbd
000001c0: 37dd b03d 7651 b8bd b0f8 4f3d 5a24 c8bd
000001d0: 5455 b03e 328f 283d 2785 91be 8348 80be
000001e0: 2292 62be 405c 9e3a 01bb fb3d 4a4f 1d3e
000001f0: d840 9f3e d438 97be fbc3 25be 799e 7bbe
00000200: 8bcb f43d a485 233e 3c17 283d 84c0 883d
00000210: 1097 113e 7e0e 09be 9288 7b3d d063 d83e
00000220: 2c27 4b3d b1ad 063e e2ef 8b3e 7f0d d4bd
00000230: a316 123e 6408 8abd 9eef 46be c8f9 4c3c
00000240: ba27 e4bc 9943 483d 52eb 8b3e 7755 46bd
00000250: 98cc 0ebd 4b4a e03d 6d9f 6e3d c433 b4bd
00000260: 5fd6 953e 6834 3cbd 13ef 8ebd 174a 483e
00000270: edf2 c2bd 8929 183d 1419 47bd 0c49 0fbd
00000280: fd6e d43b 9d2e 3e3e 9347 823e ec42 8f3e
00000290: d19d 423e e261 00be 8402 90bd a229 fc3e
000002a0: 27a3 52bd 06a2 1b3c 1ae2 0ebd df5e 673e
000002b0: 7f14 ff3d c3a7 523e ab4f 8bbe f563 683e
000002c0: 0982 753d 0ea9 08be a5cb 333d 6bf5 c3bd
000002d0: 98fc f8bd a324 c63c 0c7d 9d3c 5230 9c3c
000002e0: 202c 78bd 6ae8 15bb a4c7 11bd 4d6b a13e
000002f0: c7bd 613e bcb4 6b3d 0b35 24bd c6ed 77bd
00000300: 8556 a5bd 52c3 ac3d 9898 70bd 5028 b4bd
00000310: 4128 c93c d28b 01be 3e84 fdbd 59b4 7cbd
00000320: 1503 45be 8c93 0bbd fa82 853e c7d6 6bbd
00000330: 283b 023e 083d d73d 9c67 893e 5fa5 8ebc
00000340: 0608 9b3d 75ac 0b3c 5c8b 043e b25c a63d
00000350: 2f2b 03bd faa4 423e 1e7d 3dbe f257 12be
00000360: 1701 473e c08f 51be dee5 62bd 5971 f6bb
00000370: 7e21 f13e cc2c 10bd a550 3abe eca7 3f3e
00000380: f250 9cbd e0ea aabd c701 073f 9dab 2bbd
00000390: bb04 593e aaf5 d3bd fd93 723d b5df ec3d
000003a0: b95e 8e3e a96d fe3c 9a3d fb3d b5a4 ffbd
000003b0: 393b 613e 3730 4c3e 3921 f83d abbc b9bd
000003c0: bd2b 6a3d 4af8 f73b f632 2b3d e6d5 c9bd
000003d0: ae2b b83e 6b65 70bd b5fd 8ebd 63e3 123e
000003e0: 8b77 2d3e c922 55bd de16 6abd 4f71 103e
000003f0: c3da 3a3e 8b1c 913c eed4 6fbd 1f2f 0abe

advantage.2.bias f4 [4]
0.06907465 -0.06638117 -0.036837094 -0.01782204
00000000: 0377 8d3d daf2 87bd 7ee2 16bd 87ff 91bc

value.0.weight f4 [128, 128]
0.12128284 0.03436828 -0.34655574 0.030506266 -0.064079426 0.25688133 -0.23865612 -0.23654784
-0.128908 -0.37452546 -0.11704041 -0.2334997 0.013789107 0.091145486 0.24303992 -0.029961755
0.28043067 -0.2184563 -0.35024723 -0.112423494 -0.069427975 -0.11143636 -0.02869968 0.0366702
-0.048059817 -0.16249588 -0.24456087 -0.29196355 -0.21673085 -0.0042720973 -0.008227047 -0.03226155
-0.5186136 0.13289312 -0.29950565 -0.11554783 -0.10648051 0.028898854 -0.21937047 0.15534252
-0.055132203 -0.16451597 0.016899524 -0.034360416 0.035743445 -0.22269857 -0.056563113 -0.007259835
0.08893438 0.05859804 0.19765013 0.10881628 -0.02370002 -0.04121813 -0.32593083 -0.09420996
-0.05395535 -0.13913675 -0.10787214 -0.40735328 -0.05056652 0.10379839 -0.051206406 -0.1760002
-0.37189242 0.11026373 -0.07326711 -0.08524476 -0.24349521 -0.07926054 -0.23971957 -0.0770915
-0.4145856 0.0359907 -0.16847916 0.05765451 -0.017212767 -0.2121036 0.055200033 -0.039295666
-0.03432645 -0.078308664 -0.12427573 -0.29245085 -0.1411207 -0.62680787 -0.020003537 -0.086845115
0.02580268 -0.21568593 0.12823528 0.031661894 -0.060549933 0.009705497 -0.18613693 -0.2777214
0.105436936 0.09685848 -0.19992258 -0.27872717 -0.12667723 0.20386979 -0.60077065 -0.124878794
-0.10562113 0.16149794 0.09634356 -0.055038784 -0.2043398 -0.09184655 -0.24083836 -0.31053528
0.10209899 0.17176199 -0.21818201 -0.56782323 -0.10911822 -0.2219209 0.079660006 -0.3035944
-0.31180048 0.1912233 -0.34575662 -0.21730292 -0.10449489 -0.092009865 0.10749557 -0.12834767
0.2251163 -0.16086732 0.04118745 -0.18686529 -0.12887289 0.2149989 0.03608321 0.12982625
-0.21754286 0.021736044 -0.011606077 -0.37768877 -0.017378267 0.12030478 -0.025305962 -0.11839507
-0.14909603 -0.22673394 0.088274986 -0.036203504 -0.09837358 -0.111445494 -0.13872945 0.08051819
-0.27617177 0.24787776 -0.13618934 0.14125487 -0.011614628 0.14738749 0.15457848 -0.12442509
-0.21428376 -0.021481415 0.042188447 -0.24098577 -0.122720584 0.067749165 0.040353745 0.13145001
-0.037005972 -0.021180443 -0.35387728 -0.009435176 0.08567649 -0.06252129 -0.19441001 -0.32681048
0.22709619 -0.11761748 0.10666802 -0.29439434 0.19914553 -0.24173243 0.04641115 -0.06653865
0.055369094 -0.01929079 0.13954937 -0.0116530815 0.14757808 -0.20629069 -0.10568009 -0.29889533
0.084653094 -0.05378947 0.21103792 -0.050979994 0.0032091567 0.2529155 -0.12306347 0.16861892
-0.21351413 0.12396013 -0.01464999 -0.19495551 0.040894095 -0.3950458 0.12670724 -0.16686319
0.123626314 -0.24290034 0.19202 0.05344017 -0.33927354 -0.12573688 -0.089554794 -0.14360134
0.09113138 0.19583519 -0.08190571 -0.458552 -0.05100893 -0.03746753 -0.017470784 -0.34965384
0.08262389 -0.13674732 -0.1815468 0.14383528 0.064058684 0.0869938 -0.27717876 0.16006711
-0.2626814 -0.0539681 -0.1842771 -0.15880476 -0.18748975 -0.034112386 0.0072549614 -0.51286787
-0.06771336 -0.15007365 -0.05512234 -0.13825808 -0.28373557 0.06922373 -0.37609836 0.02822311
-0.098294206 0.203919 -0.03276185 -0.31287065 -0.3673538 -0.06691121 -0.23182827 -0.31720793
00000000: 2363 f83d c1c5 0c3d c16f b1be 47e8 f93c
00000010: 133c 83bd f385 833e 4562 74be 9939 72be
00000020: 7500 04be cdc1 bfbe e2b2 efbd 8c1a 6fbe
00000030: b5eb 613c 7caa ba3d 75df 783e 5b72 f5bc
00000040: 9c94 8f3e 02b3 5fbe 9b53 b3be 4a3e e6bd
00000050: 4130 8ebd bf38 e4bd 971b ebbc 7e33 163d
00000060: 5fda 44bd 5265 26be 2a6e 7abe 3f7c 95be
00000070: b1ee 5dbe f3fc 8bbb bcca 06bc b024 04bd
00000080: dcc3 04bf 2215 083e ce58 99be 57a4 ecbd
00000090: 7412 dabd 4abd ec3c a7a2 60be 1c12 1f3e
000000a0: 4ed2 61bd e076 28be df70 8a3c 82bd 0cbd
000000b0: b867 123d 180b 64be b9ae 67bd e9e3 edbb
000000c0: 3a23 b63d 8004 703d cc64 4a3e 12db de3d
000000d0: 8b26 c2bc 58d4 28bd 68e0 a6be 27f1 c0bd
000000e0: 4900 5dbd dd79 0ebe 12ec dcbd 9c90 d0be
000000f0: d71e 4fbd 4094 d43d cfbd 51bd 6539 34be
00000100: af68 bebe f3d1 e13d 110d 96bd ce94 aebd
00000110: cf56 79be 5a53 a2bd 0c79 75be 26e2 9dbd
00000120: 9044 d4be fc6a 133d cd85 2cbe 2327 6c3d
00000130: ca01 8dbc b031 59be 6e19 623d 7ef4 20bd
00000140: e499 0cbd 4b60 a0bd 4684 febd 1ebc 95be
00000150: f281 10be 7b76 20bf 75de a3bc dadb b1bd
00000160: 2460 d33c c6dc 5cbe 1c50 033e e7af 013d
00000170: 3503 78bd ce03 1f3c ae9a 3ebe 8031 8ebe
00000180: 52ef d73d bd5d c63d 81b8 4cbe 54b5 8ebe
00000190: adb7 01be 3ec3 503e 1bcc 19bf 74c0 ffbd
000001a0: e44f d8bd b75f 253e c64f c53d 5970 61bd
000001b0: 743e 51be 0b1a bcbd 559e 76be 7bfe 9ebe
000001c0: 4619 d13d 60e2 2f3e 1b6b 5fbe dd5c 11bf
000001d0: 6079 dfbd 3b3f 63be c924 a33d ba70 9bbe
000001e0: 50a4 9fbe 0ad0 433e 0307 b1be a884 5ebe
000001f0: 6b01 d6bd ab6f bcbd a326 dc3d 926d 03be
00000200: e384 663e 67ba 24be 2cb4 283d 9d59 3fbe
00000210: 41f7 03be ac28 5c3e fdcb 133d 2cf1 043e
00000220: 8ec3 5ebe ca0f b23c 6a27 3ebc 6c60 c1be
00000230: de5c 8ebc 5a62 f63d 734e cfbc 1d79 f2bd
00000240: a1ac 18be f12c 68be 84c9 b43d 204a 14bd
00000250: 1678 c9bd 893d e4bd 180f 0ebe b9e6 a43d
00000260: 6366 8dbe abd3 7d3e 3875 0bbe 1ea5 103e
00000270: 484b 3ebc bfec 163e d249 1e3e 95d2 febd
00000280: 346d 5bbe cbf9 afbc cbcd 2c3d f9c4 76be
00000290: ee54 fbbd 13c0 8a3d f849 253d d59a 063e
000002a0: 9393 17bd 9c82 adbc 672f b5be ff95 1abc
000002b0: 2877 af3d 290b 80bd 6b13 47be b453 a7be
000002c0: e78b 683e 6fe1 f0bd c374 da3d dbba 96be
000002d0: ceec 4b3e b588 77be 9e19 3e3d 6a45 88bd
000002e0: b4ca 623d b807 9ebc 08e6 0e3e 91ec 3ebc
000002f0: b51e 173e de3d 53be ce6e d8bd cf08 99be
00000300: 9a5e ad3d 5952 5cbd 531a 583e 66d0 50bd
00000310: b750 523b 247e 813e b308 fcbd 70aa 2c3e
00000320: 73a3 5abe cfde fd3d 8306 70bc 6ba2 47be
00000330: 9180 273d 7143 cabe 8bbf 013e 2fde 2abe
00000340: cb2f fd3d deba 78be e4a0 443e 14e4 5a3d
00000350: 43b5 adbe 2bc1 00be 8168 b7bd 3b0c 13be
00000360: 17a3 ba3d 0589 483e 2ebe a7bd 54c7 eabe
00000370: bdee 50bd 8e77 19bd e41e 8fbc d405 b3be
00000380: b736 a93d 7d07 0cbe 68e7 39be 8e49 133e
00000390: 3331 833d ce29 b23d 60ea 8dbe a2e8 233e
000003a0: 2d7e 86be a80d 5dbd 23b3 3cbe b79d 22be
000003b0: 50fd 3fbe 6eb9 0bbd 07bb ed3b 4f4b 03bf
000003c0: 4dad 8abd e8ac 19be f6c7 61bd 8793 0dbe
000003d0: ca45 91be 2cc5 8d3d f78f c0be 2734 e73c
000003e0: 794e c9bd 24d0 503e 4a31 06bd 9530 a0be
000003f0: cc15 bcbe bf08 89bd 6464 6dbe 1469 a2be

value.0.bias f4 [128]
-0.11029956 -0.043742787 -0.10165988 0.16239858 0.0107976 -0.10085554 0.38194802 -0.18238376
0.4147345 0.44567463 -0.030105153 0.43890494 0.157727 -0.15014693 0.31740198 -0.056891587
-0.058511857 -0.089856006 -0.10406273 0.46394727 -0.12801918 0.10584064 0.0073190816 -0.08969824
-0.09554823 -0.059020597 -0.11998482 0.24301142 -0.00087645237 0.4707164 0.010815121 -0.1141646
-0.0037021455 -0.1544206 -0.12125539 -0.06925128 0.06811848 -0.009070433 0.52641016 -0.16622761
0.06212934 -0.20841621 0.33652756 -0.122256264 0.49857467 -0.27626133 0.2625394 0.33942327
-0.12800407 0.053750724 -0.19633976 -0.0014989276 0.2033275 0.25539848 -0.05672523 0.0055218283
-0.05505647 0.066103674 -0.015934845 -0.15128118 0.016297562 -0.16461787 0.32593215 -0.039107803
0.5139331 -0.022560095 0.5091226 -0.089256495 -0.12639147 0.2635324 -0.019486845 -0.29414886
-0.070178285 -0.03467074 -0.003564947 0.4527124 -0.12978917 -0.050901793 0.05614003 -0.0636052
-0.100932606 -0.05606739 -0.2436239 0.12939194 -0.118283875 0.0061911847 0.21908398 -0.14212158
-0.0029610028 0.5067713 0.102605395 -0.00919807 -0.11665616 0.08409277 0.054832347 0.5243884
-0.083924346 -0.031899594 0.11388596 -0.13357183 0.033094224 0.0073256334 0.17629103 0.120726705
0.05482302 0.106352754 0.051206276 -0.06597391 0.15016146 0.09810133 -0.24595124 0.07984117
0.15925828 -0.043559298 0.102368765 -0.07466581 0.10309118 -0.058670495 -0.10535118 0.061192714
-0.11696886 -0.19937143 -0.11002741 -0.17164902 0.056534134 0.26984808 0.15088485 -0.038787954
00000000: bce4 e1bd a32b 33bd 0e33 d0bd d04b 263e
00000010: 6be8 303c 598d cebd b18e c33e cfc2 3abe
00000020: 1558 d43e 772f e43e 159f f6bc 26b8 e03e
00000030: 3083 213e 1ec0 19be 8382 a23e 2707 69bd
00000040: 21aa 6fbd 6d06 b8bd d71e d5bd 7f8a ed3e
00000050: 7617 03be fac2 d83d e8d4 ef3b b6b3 b7bd
00000060: caae c3bd 95bf 71bd 9aba f5bd fcd7 783e
00000070: b9c1 65ba bd01 f13e e831 313c 21cf e9bd
00000080: b29f 72bb 6f20 1ebe bf54 f8bd 9dd3 8dbd
00000090: b481 8b3d 279c 14bc d1c2 063f 9237 2abe
000000a0: 567b 7e3d 0f6b 55be 574d ac3e 7e61 fabd
000000b0: 2e45 ff3e 2072 8dbe 906b 863e e3c8 ad3e
000000c0: 8013 03be b829 5c3d 4a0d 49be aa77 c4ba
000000d0: 1635 503e 97c3 823e b758 68bd 74f0 b43b
000000e0: e582 61bd 5d61 873d cb89 82bc 74e9 1abe
000000f0: 7782 853c 9691 28be 94e0 a63e 812f 20bd
00000100: 1f91 033f f3cf b8bc dc55 023f 1ccc b6bd
00000110: c46c 01be b8ed 863e e0a2 9fbc ae9a 96be
00000120: a2b9 8fbd e802 0ebd e3a1 69bb ebc9 e73e
00000130: 74e7 04be 667e 50bd 17f3 653d 7143 82bd
00000140: c1b5 cebd eba6 65bd 8b78 79be 527f 043e
00000150: d13e f2bd 6cdf ca3b 8d57 603e 5288 11be
00000160: 620d 42bb c4bb 013f c722 d23d 80b3 16bc
00000170: 6de9 eebd d538 ac3d e297 603d 513e 063f
00000180: 87e0 abbd 26a9 02bd 0b3d e93d 0ec7 08be
00000190: cf8d 073d de0b f03b a385 343e 903f f73d
000001a0: 1a8e 603d 79cf d93d acbd 513d 541d 87bd
000001b0: edc3 193e 5ae9 c83d a4da 7bbe c483 a33d
000001c0: 9a14 233e 3c6b 32bd b7a6 d13d 63ea 98bd
000001d0: 7821 d33d 7950 70bd 5cc2 d7bd 36a5 7a3d
000001e0: 5f8d efbd 0628 4cbe 0d56 e1bd c3c4 2fbe
000001f0: 5690 673d 8729 8a3e 8f81 1a3e 1ee0 1ebd

value.2.weight f4 [1, 128]
-0.40506902 -0.4088827 -0.2041273 0.11196751 0.27685001 -0.20375118 0.07806853 -0.32146373
0.12161852 0.09406449 0.26857772 0.0951203 0.098735854 -0.27638966 0.07418222 -0.2842165
-0.3223981 0.4154944 0.6256204 0.13797085 -0.2758396 0.108139746 0.11849732 -0.22268069
-0.3378885 -0.5588388 -0.16117981 0.108157314 -0.40900657 0.10098691 0.39375347 0.3692948
0.25210324 -0.19960709 -0.2394027 0.34876406 0.14783373 -0.52398944 0.15370241 -0.2749605
0.13484614 -0.15879712 0.06116965 -0.26056054 0.114740446 -0.27062324 0.04370969 0.08053106
-0.28610256 -0.44960496 -0.2862812 -0.38183612 0.1159662 0.09164184 0.39006594 0.15802616
-0.30784568 0.2057466 0.1813589 -0.3982548 -0.41911736 -0.3257401 0.070474915 -0.23150349
0.14742215 -0.35937527 0.1389157 -0.19441138 -0.32711798 0.21692872 -0.27154723 -0.15071768
-0.4291749 -0.61907226 0.2065767 0.11349475 -0.2537057 0.46893117 0.12753887 -0.20952457
0.04190974 -0.37434235 -0.08755833 0.08646458 -0.13555223 -0.3842697 0.10794148 -0.20051211
-0.48429915 0.13791068 0.07298417 -0.30482623 -0.26053348 0.14690585 0.09463862 0.1403036
-0.40971497 -0.4795211 0.12720904 -0.33765414 -0.61508363 0.20897138 0.03675952 0.11946776
0.09529062 0.10386555 -0.30065957 0.4825141 0.12746526 0.10224741 -0.29005107 0.19388644
0.14128312 0.17610323 0.11932056 0.17887166 0.17789507 0.2353609 -0.29902482 0.23994476
-0.38508365 -0.120345674 -0.15105826 -0.21274275 -0.6512818 0.10479264 0.0923236 0.2415474
00000000: 3565 cfbe 1359 d1be bf06 51be 394f e53d
00000010: 49bf 8d3e 26a4 50be 65e2 9f3d e596 a4be
00000020: 2113 f93d e2a4 c03d 0583 893e 6fce c23d
00000030: 0636 ca3d f282 8dbe d9ec 973d d384 91be
00000040: 5d11 a5be afbb d43e a928 203f 3b48 0d3e
00000050: d93a 8dbe 5f78 dd3d b9ae f23d 6806 64be
00000060: b9ff acbe 0f10 0fbf 520c 25be 9581 dd3d
00000070: 4f69 d1be 3ad2 ce3d 0e9a c93e 3514 bd3e
00000080: ad13 813e cd65 4cbe fb25 75be 3491 b23e
00000090: ba61 173e 2c24 06bf 2a64 1d3e 9fc7 8cbe
000000a0: 1b15 0a3e b69b 22be 078d 7a3d 3168 85be
000000b0: 0afd ea3d 218f 8abe ef08 333d 78ed a43d
000000c0: 097c 92be 9f32 e6be 7393 92be 0680 c3be
000000d0: b07f ed3d b8ae bb3d b9b6 c73e 9cd1 213e
000000e0: f39d 9dbe 3daf 523e 26b6 393e 0ee8 cbbe
000000f0: 8d96 d6be 68c7 a6be 2755 903d 400f 6dbe
00000100: d5f5 163e 0900 b8be eb3f 0e3e c713 47be
00000110: 027c a7be 9022 5e3e 3d08 8bbe bc55 1abe
00000120: d0bc dbbe 857b 1ebf d888 533e ef6f e83d
00000130: b7e5 81be bf17 f03e 8d99 023e 9c8d 56be
00000140: 8ca9 2b3d cda9 bfbe c851 b3bd 5714 b13d
00000150: 34ce 0abe 00bf c4be 6c10 dd3d 0c53 4dbe
00000160: 0ff6 f7be 7538 0d3e b978 953d 2f12 9cbe
00000170: a564 85be 7d6e 163e e5d1 c13d bfab 0f3e
00000180: 29c6 d1be ca83 f5be 1643 023e 01e1 acbe
00000190: 1f76 1dbf 98fc 553e 2791 163d 83ab f43d
000001a0: bb27 c33d 76b7 d43d 0df0 99be 170c f73e
000001b0: 4186 023e 1767 d13d 9381 94be 2b8a 463e
000001c0: 86ac 103e 6854 343e 565e f43d 222a 373e
000001d0: 202a 363e 7302 713e c819 99be 14b4 753e
000001e0: af29 c5be cb77 f6bd 04af 1abe 3cd9 59be
000001f0: 67ba 26bf 869d d63d 2814 bd3d 3458 773e
