prioritized_checkpoint.pth (torch_old, 28333 bytes, 6 tensors)

fc1.weight f4 [64, 37]
0	0xbd690bf1	-0.056896154
1	0x3e1fcc70	0.1560533
2	0xbd2d959f	-0.042379018
3	0xbcf4b517	-0.029871507
4	0xbcfd060f	-0.030886678
5	0xbe3b54b7	-0.18294035
6	0xbc877864	-0.016536899
7	0x3ea5b7af	0.32366702
8	0x3e832e27	0.2562115
9	0xbf0fcfb8	-0.5617633
10	0x3d9f81da	0.07788439
11	0x3eae2469	0.34012154
12	0xbea7bb95	-0.327603
13	0xbe8f8d84	-0.28037655
14	0xbe1da358	-0.15394342
15	0x3ca56008	0.020187393
16	0xbe81e8f9	-0.25373057
17	0x3eee4116	0.46534032
18	0xbdda3544	-0.10654691
19	0xbd6ec587	-0.058293846
20	0x3f095277	0.53641456
21	0xbcb2c1c2	-0.021820907
22	0xbe7d2d81	-0.2472439
23	0x3d88db89	0.06682498
24	0xbebde672	-0.37089878
25	0x3e9e1cd8	0.3088138
26	0x3e0e88d9	0.1391939
27	0xbe4710a2	-0.19439939
28	0xbe7709fe	-0.24124905
29	0xbe8ade29	-0.2712262
30	0xbe961f93	-0.29320964
31	0x3ee601af	0.4492316
32	0xbd84a526	-0.06476812
33	0xbca50bc5	-0.020147214
34	0x3dda0460	0.10645366
35	0xbec22922	-0.37922007
36	0xbd82d2f7	-0.063878946
37	0x3ea13e68	0.31492925
38	0xbe002219	-0.12513007
39	0xbd485dad	-0.04891746
40	0x3eee8308	0.46584344
41	0xbe8a7399	-0.2704132
42	0xbe487ba8	-0.19578421
43	0xbed07bec	-0.40719545
44	0x3e979f7a	0.29613858
45	0x3ddd2824	0.10798672
46	0x3f11a4b3	0.56891936
47	0x3df5bff5	0.119995035
48	0x3ea014eb	0.3126596
49	0xbe4f04d6	-0.20216689
50	0xbe39138b	-0.18073861
51	0x3ec79e52	0.38987976
52	0xbe6e417d	-0.2326717
53	0x3e940011	0.289063
54	0xbe22f144	-0.15912348
55	0x3ee94fec	0.45568788
56	0x3e41ca74	0.18924886
57	0xbe93e8ee	-0.2888865
58	0x3d08e3d2	0.03342039
59	0x3dd24407	0.102668814
60	0xbe896456	-0.26834363
61	0x3e0860a6	0.13318118
62	0xbdd42432	-0.10358466
63	0x3d8b4fc6	0.06802325
64	0x3e51b29a	0.20478287
65	0xbdd2536f	-0.1026982
66	0x3e1db929	0.15402664
67	0x3e4e79ae	0.20163605
68	0xbd205523	-0.039143693
69	0x3decc871	0.11561669
70	0xbd77ff6d	-0.060546327
71	0x3e20dde1	0.1570964
72	0x3e455367	0.19270097
73	0x3d8325ae	0.06403671
74	0xbd262baa	-0.040568985
75	0xbeb9c123	-0.36280164
76	0x3e0e7e15	0.13915284
77	0xbc966cc9	-0.01836242
78	0x3e80e1ae	0.2517218
79	0xbfba9748	-1.4577417
80	0x3b313990	0.0027042367
81	0x3e489a9f	0.19590233
82	0xbeb186f1	-0.34673265
83	0x3e80b571	0.2513843
84	0x3d9e3812	0.07725538
85	0x3ca00e92	0.019538198
86	0xbe108582	-0.14113429
87	0xbf390318	-0.72270346
88	0x3e8c357c	0.27384555
89	0xbf84dfab	-1.0380758
90	0xbf82080a	-1.0158703
91	0x3e784ae3	0.24247317
92	0x3f0eabab	0.55730695
93	0x3d961773	0.07328691
94	0xbf8b345a	-1.0875351
95	0x3e6baa20	0.23014116
96	0xbf28e2c3	-0.6597101
97	0x3e669669	0.22518314
98	0xbd4a2f4e	-0.04936152
99	0xbd639c0b	-0.055568736
100	0xbe0bbd48	-0.13646424
101	0x3e426786	0.18984804
102	0xbed64c9e	-0.4185533
103	0xbd10f9bc	-0.035394415
104	0xbf062be2	-0.5241071
105	0xbce58595	-0.028017798
106	0xbe08331a	-0.13300744
107	0xbe21b72f	-0.15792535
108	0x3da7462a	0.081676796
109	0x3db55f04	0.088560134
110	0xbe197956	-0.14987692
111	0x3dd3baf2	0.10338391
112	0xbf561e92	-0.83640397
113	0x3e56d841	0.20980932
114	0xbee709bc	-0.45124614
115	0xbfbe70b5	-1.4878145
116	0xbf7e17e7	-0.9925522
117	0xbda70512	-0.08155264
118	0xbe8d61a7	-0.27613565
119	0x3d1f10f4	0.038834527
120	0x3db2b11e	0.08725189
121	0xbf240c76	-0.64081514
122	0xbf1bb2f1	-0.6081992
123	0x3c693b5b	0.014235343
124	0xbe73cb68	-0.23808062
125	0xbf7d6c55	-0.98993427
126	0xbe1e60c7	-0.15466605
127	0xbf377b00	-0.7167206
128	0x3e1afb37	0.15134893
129	0xbf8c2d38	-1.09513
130	0xbedcd730	-0.43132925
131	0xbea1c55e	-0.31595892
132	0x3eb99d45	0.362528
133	0xbf29136d	-0.66045266
134	0xbeba7b12	-0.3642202
135	0x3ee61d46	0.4494421
136	0xbdec716e	-0.115450725
137	0x3dc368c2	0.09541465
138	0xbde1265f	-0.10993647
139	0xbf321ede	-0.6957835
140	0xbeb03ba8	-0.34420514
141	0x3e931471	0.28726533
142	0xbf062b99	-0.52410275
143	0xbfa4c59f	-1.2872809
144	0x3e28f4f3	0.1649969
145	0x3e1049f2	0.14090708
146	0x3eaf32a2	0.34218317
147	0xbdc7752c	-0.09739146
148	0xbdbded90	-0.09273827
149	0xbd0b70d9	-0.034043167
150	0xbeb7d0b9	-0.3590143
151	0xbe54c8e3	-0.20779757
152	0xbf30e1a0	-0.69094276
153	0xbef7ad9f	-0.4837465
154	0x3eb5f9ef	0.35542247
155	0xbd4dba01	-0.050226215
156	0xbdc85502	-0.09781839
157	0xbf5a34b5	-0.85236675
158	0xbc960552	-0.018313084
159	0x3eaeb9f9	0.3412626
160	0xbea89d7d	-0.32932654
161	0xbeec6ea8	-0.46178174
162	0x3e150158	0.14551294
163	0xbe36ca10	-0.17850518
164	0x3d5ede93	0.054411482
165	0x3c8beb56	0.01707999
166	0xbf4f64bb	-0.8101308
167	0x3c32f1a4	0.010921869
168	0xbe1420ed	-0.14465685
169	0xbe6213fb	-0.22077934
170	0x3e94f68c	0.2909435
171	0xbcdace0a	-0.026709575
172	0x3f14bf94	0.58104825
173	0xbe6aa93a	-0.22916117
174	0xbdee6e6b	-0.11642154
175	0x3e46286a	0.19351354
176	0xbea04061	-0.31299117
177	0xbf39a57b	-0.7251813
178	0xbeb4855d	-0.35257998
179	0xbe5e3868	-0.21701205
180	0x3ee0348e	0.43790096
181	0x3d6c2e2a	0.057661213
182	0x3f0cdd3a	0.55025065
183	0x3e096dff	0.13420866
184	0x3ced0928	0.02893503
185	0xba215ce2	-0.0006155503
186	0x3d9a9904	0.07548717
187	0x3dbcb684	0.092144996
188	0x3daf2c55	0.085533775
189	0xbe0ee66d	-0.13955088
190	0x3d5129f6	0.051065408
191	0x3e84c624	0.2593242
192	0x3d8d329e	0.0689442
193	0x3d8eca24	0.06972149
194	0xbe26b26a	-0.16278997
195	0x3bded0c7	0.0067997905
196	0xbe48b23f	-0.19599245
197	0x3e84acbe	0.25913042
198	0xbd63fe53	-0.055662464
199	0xbd8be857	-0.06831425
200	0x3d06eeb0	0.032942474
201	0x3ec25287	0.37953588
202	0xbb57472c	-0.0032848818
203	0xbe362824	-0.1778875
204	0xbda0f092	-0.07858385
205	0x3e993fb9	0.2993143
206	0xbc0e6e0c	-0.008693229
207	0x3d6538d2	0.05596239
208	0x3e803f69	0.25048378
209	0x3dcc27ef	0.09968554
210	0x3e8c2b83	0.27376947
211	0xbe54e21e	-0.20789382
212	0x3e05cea1	0.13067104
213	0xbe067251	-0.13129546
214	0xbd9d2c8a	-0.07674511
215	0x3e32ea5f	0.17472218
216	0xbd99810d	-0.074953176
217	0x3d8cb16b	0.06869777
218	0x3e5f76ae	0.21822616
219	0xbf2208af	-0.632945
220	0x3d90afd5	0.07064787
221	0x3dcf979f	0.10136341
222	0x3ebfcdfd	0.37461844
223	0xbf59934b	-0.84990376
224	0xbe52cf9a	-0.20587006
225	0xbda3d426	-0.079994485
226	0xbf916426	-1.1358688
227	0xbf3a47b6	-0.7276567
228	0x3e81d34d	0.25356522
229	0xbe357dc2	-0.17723754
230	0x3e8c8682	0.2744637
231	0xbd64b86b	-0.055839937
232	0xbf4699b2	-0.7757827
233	0x3ec12ace	0.3772797
234	0x3dd40c31	0.10353888
235	0xbe4e9059	-0.20172252
236	0xbec97878	-0.39349723
237	0x3e14d480	0.14534187
238	0xbee5cb95	-0.44881883
239	0x3d693ba9	0.056941662
240	0xbe53d80e	-0.20687887
241	0xbd592144	-0.05301024
242	0x3e4355bb	0.19075672
243	0xbda65b5f	-0.081228964
244	0xbe0097c5	-0.12557895
245	0xbeab7c0e	-0.33493084
246	0x3ea999c2	0.3312512
247	0x3cabe3eb	0.020982703
248	0x3e1e7780	0.15475273
249	0xbf0a45f6	-0.54013
250	0xbf2ad391	-0.66729075
251	0x3e3fedbf	0.18743037
252	0xbf1645c7	-0.5870022
253	0x3da33a5e	0.07970117
254	0xbe4976cb	-0.19674222
255	0x3e228cb9	0.15873994

fc1.bias f4 [64]
0	0x3e6d6c17	0.23185764
1	0xbcb97d46	-0.022642743
2	0xbe97f15d	-0.29676333
3	0xbe36e23e	-0.17859742
4	0x3da5b111	0.08090413
5	0x3dadbf61	0.08483768
6	0xbdc9f5e3	-0.09861352
7	0x3d91c17c	0.07116982
8	0xbbad4389	-0.005287592
9	0xbe6648b6	-0.22488675
10	0x3d398e7e	0.045301907
11	0x3e1b67cb	0.15176313
12	0xbc4a5f36	-0.012351802
13	0x3d30695f	0.04306924
14	0x3c7287eb	0.014802913
15	0xbd967ff1	-0.07348622
16	0x3e3a69eb	0.18204467
17	0xbdba5fd3	-0.09100308
18	0xbd603fdc	-0.0547484
19	0xbe14873f	-0.14504717
20	0xbd80f6b9	-0.062970586
21	0xbc1f69be	-0.009729801
22	0xbd8d59ea	-0.06901915
23	0xbd72072b	-0.059088867
24	0xbc2adb0f	-0.010428204
25	0x3dbc0013	0.09179702
26	0x3d22a725	0.039710183
27	0xbdb35e9c	-0.0875828
28	0x3df92744	0.121656924
29	0x3e0e5e1c	0.13903087
30	0xbe06f35b	-0.1317877
31	0xbeb5847e	-0.35452646
32	0x3e655354	0.22395068
33	0x3d3af1ff	0.04564094
34	0xbe17e46c	-0.1483323
35	0x3da30106	0.079591796
36	0x3c1787c7	0.00924868
37	0x3dc162cd	0.09442673
38	0xbde76674	-0.11298838
39	0xbe5f0ac6	-0.21781453
40	0xbdb71ded	-0.08941255
41	0x3d64668a	0.05576185
42	0xbdbfbb83	-0.09361937
43	0x3e8b7edb	0.2724522
44	0xbba3430b	-0.0049823574
45	0xbe647c42	-0.22313026
46	0xbe127596	-0.14302668
47	0xbda0aeb4	-0.07845822
48	0x3c7b45ca	0.015336463
49	0x3c617776	0.013761392
50	0xbd84b5b3	-0.06479969
51	0x3d3fedeb	0.046857756
52	0xbd34e006	-0.044158958
53	0xbd915faa	-0.070983246
54	0xbe25c229	-0.16187347
55	0x3d2ce5be	0.042211287
56	0xbc549c7a	-0.01297676
57	0xbdd47c36	-0.10375254
58	0xbe5de952	-0.21671036
59	0xbe304dce	-0.1721718
60	0xbc5b3489	-0.013379225
61	0xbc1dbca9	-0.0096275
62	0xbc94b21a	-0.018151332
63	0x3bdd48ac	0.006753048

fc2.weight f4 [64, 64]
0	0x3d9f8ab6	0.07790129
1	0xbe5d24fd	-0.21596141
2	0x3ead8205	0.3388826
3	0xbf19ac1b	-0.6002824
4	0xbdc09ee1	-0.09405304
5	0xbf099a67	-0.53751224
6	0xbeb209dc	-0.34773147
7	0xbf4609e7	-0.7735886
8	0x3e5bc08e	0.21460173
9	0xbf2f76e5	-0.68540794
10	0xbed35ab4	-0.41280138
11	0xbf6d4bb9	-0.9269367
12	0xbf074a0e	-0.52847373
13	0xbe184bb5	-0.1487263
14	0x3ecbb98d	0.39790002
15	0xbeed550e	-0.46353954
16	0x3dd60071	0.10449303
17	0xbeff992b	-0.49921545
18	0xbe7cf641	-0.24703313
19	0xbef8ec92	-0.4861799
20	0xbdf5f1f4	-0.120090395
21	0xbefd1316	-0.49428624
22	0xbd80e422	-0.06293513
23	0x3e5f2415	0.21791108
24	0x3f01c659	0.5069328
25	0xbe04dbae	-0.12974426
26	0x3d188e75	0.037245233
27	0x3e56fcdc	0.20994896
28	0x3d2cc0a1	0.042175893
29	0xbe2935e2	-0.16524461
30	0x3ea11b74	0.31466258
31	0x3db4cc0f	0.088279836
32	0x3d90ed3f	0.07076501
33	0x3df6eef4	0.120572954
34	0xbf12321e	-0.5710772
35	0xbf26a009	-0.65087944
36	0xbf1fc83b	-0.624149
37	0xbf1eb996	-0.6200193
38	0x3e914723	0.28374586
39	0xbf676b00	-0.90397644
40	0xbe0887f6	-0.13333115
41	0xbe5528c6	-0.20816335
42	0xbf035b85	-0.5131152
43	0x3d9c98d1	0.07646335
44	0xbda9943c	-0.082802266
45	0xbf7ed6aa	-0.995463
46	0xbf19b6d6	-0.6004461
47	0xbf089ba4	-0.5336249
48	0x3edb028f	0.4277539
49	0xbf101213	-0.5627758
50	0xbe846e04	-0.25865185
51	0xbef9b982	-0.48774344
52	0xbe7c1c07	-0.24620067
53	0xbfc76ee5	-1.5580717
54	0xbd30383a	-0.04302237
55	0xbf68eb3a	-0.9098393
56	0xbe31f061	-0.17376854
57	0xbe83f267	-0.25770876
58	0xbf8364ac	-1.0265098
59	0xbf02c57f	-0.51082605
60	0xbf4474ae	-0.7674054
61	0x3e585fd3	0.21130304
62	0x3e9bb334	0.3041016
63	0x3e13e208	0.14441693
64	0x3e1531c1	0.14569761
65	0x3ddc032b	0.10742792
66	0xbe1b3f93	-0.1516097
67	0xbe026e06	-0.12737283
68	0x3d4e1e94	0.05032213
69	0x3e4bd3ca	0.1990501
70	0xbe2f403f	-0.17114352
71	0x3db7371c	0.08946058
72	0xbdc5498e	-0.0963317
73	0xbe64c346	-0.22340116
74	0x3e1926e7	0.14956246
75	0x3e85888a	0.26080734
76	0x3bc56950	0.006024517
77	0x3e1133b5	0.14179881
78	0x3dcef15e	0.10104631
79	0x3e2351af	0.15949129
80	0x3e1c1034	0.15240556
81	0x3cfd1b07	0.030896677
82	0x3d8a4968	0.067522824
83	0xbe03f919	-0.12887992
84	0x3d865f77	0.06561177
85	0xbd87b32b	-0.066259705
86	0x3e09fb3c	0.13474745
87	0xbc293660	-0.010327905
88	0xbb95b6af	-0.0045688967
89	0x3e2d866a	0.16945806
90	0xbd8279b0	-0.06370866
91	0x3d97177e	0.07377528
92	0x3e773e6a	0.24144903
93	0x3e0b0fc9	0.1358024
94	0x3e377f8b	0.17919748
95	0xbc5d795b	-0.013517703
96	0x3cd892c7	0.026437176
97	0x3e3b896d	0.18314143
98	0x3d9efabc	0.077626675
99	0x3db14823	0.08656337
100	0x3d837d12	0.0642034
101	0xbdbd3b23	-0.09239795
102	0x3da34c95	0.07973591
103	0xbd5ba2bf	-0.053622004
104	0xbcf3e817	-0.029773755
105	0xbd7c4d15	-0.06159695
106	0xbdb2193b	-0.086962186
107	0xbd216ff2	-0.0394134
108	0xbd3d0375	-0.046145875
109	0xbd4b0356	-0.04956373
110	0xbe3fbd3d	-0.18724532
111	0x3d7a5a9a	0.06112156
112	0x3dc0fcea	0.094232395
113	0x3d776ed5	0.060408432
114	0x3e71134d	0.23542519
115	0x3e351d32	0.17686918
116	0xbeb3635c	-0.35036743
117	0x3d86f627	0.065899186
118	0xbdbb23bc	-0.09137675
119	0x3df6706d	0.12033162
120	0xbe1e4f76	-0.1546
121	0x3d84b5c4	0.064799815
122	0x3dfcf73d	0.123518445
123	0x3e2ffefb	0.17187111
124	0xbe8a81ad	-0.2705206
125	0x3dbb18f2	0.09135617
126	0xbd889add	-0.06670163
127	0x3e2cb401	0.16865541
128	0xbe0cd839	-0.13754357
129	0xbdfaf0a1	-0.122529276
130	0x3dfb1e49	0.12261636
131	0xbe98d231	-0.29847863
132	0x3ec00365	0.3750259
133	0xbeb89d21	-0.3605738
134	0xbeee322f	-0.46522662
135	0x3e427d5e	0.18993136
136	0x3de05625	0.10953931
137	0x3d283b6d	0.041072298
138	0xbed87780	-0.4227867
139	0x3db3f9a8	0.087878525
140	0xbf19824f	-0.5996446
141	0x3e1361fa	0.14392844
142	0x3c9aecf0	0.018911809
143	0xbed14eef	-0.40880534
144	0xbe8e934b	-0.2784675
145	0x3de28f67	0.11062508
146	0x3eb449b2	0.35212475
147	0xbf20277f	-0.62560266
148	0x3d83055f	0.06397509
149	0xbe9c9555	-0.3058268
150	0xbecb804d	-0.39746323
151	0xbf313cdb	-0.69233483
152	0xbe95dc7f	-0.29269788
153	0xbde87532	-0.11350478
154	0x3e9ca32e	0.30593246
155	0xbe72600d	-0.23669453
156	0xbf1dc9c1	-0.6163598
157	0x3e7745a0	0.24147654
158	0x3e0d9522	0.13826421
159	0xbe027123	-0.1273847
160	0xbefcd659	-0.49382284
161	0x3ecd63f7	0.4011533
162	0x3dc4e378	0.09613699
163	0xbcb43149	-0.021996157
164	0x3d3b60a1	0.04574645
165	0xbba12280	-0.004917443
166	0x3d4fbc71	0.05071682
167	0xbe3b1743	-0.18270592
168	0x3e73eea7	0.23821507
169	0xbf288740	-0.65831375
170	0x3e6de06e	0.23230144
171	0xbcf5b32e	-0.029992666
172	0xbf7daa98	-0.9908843
173	0x3dab4b55	0.08363978
174	0x3e4a566a	0.19759527
175	0xbec2fcbb	-0.38083443
176	0xbd84b47b	-0.064797364
177	0xbea97bf4	-0.3310238
178	0xbedf4dff	-0.43614194
179	0xbdbed427	-0.093178086
180	0x3e937192	0.28797585
181	0xbe411f42	-0.1885958
182	0xbe349499	-0.1763481
183	0xbde2fb49	-0.11083085
184	0x3e2ece23	0.17070822
185	0x3e96bdf2	0.29441792
186	0xbe480c84	-0.19536024
187	0x3e95f307	0.29286978
188	0xbd5611ad	-0.05226295
189	0xbf4b3f77	-0.79393715
190	0x3e18c4a5	0.14918764
191	0xbda72e6b	-0.081631504
192	0xbd1bd0a0	-0.038040757
193	0xbe9c3847	-0.30511686
194	0xbf0dcb55	-0.55388385
195	0x3f1456a4	0.57944703
196	0x3db7b186	0.08969407
197	0xbe8ddc98	-0.27707362
198	0x3e085d85	0.13316925
199	0xbf213880	-0.6297684
200	0x3e499a9d	0.19687887
201	0xbf019c28	-0.506289
202	0xbe4f3071	-0.20233323
203	0x3e8a5443	0.27017412
204	0xbf59b670	-0.85044
205	0x3d080556	0.033208214
206	0x3d55ea43	0.052225363
207	0xbe98e73b	-0.29863915
208	0xbd9ed86e	-0.077561244
209	0x3c0e2c2b	0.008677523
210	0xbe24c699	-0.16091384
211	0xbda425ae	-0.08014999
212	0x3c71cc75	0.014758219
213	0x3ec6d8de	0.38837332
214	0xbf14291b	-0.5787522
215	0xbf11e121	-0.56984144
216	0x3e9ebbae	0.31002563
217	0xbed9d625	-0.42546192
218	0x3ed60626	0.41801566
219	0x3ea8e398	0.3298614
220	0x3ef694bb	0.48160347
221	0xbdfa612e	-0.12225567
222	0xbea57c60	-0.32321453
223	0x3d800f78	0.062529504
224	0xbd890e74	-0.0669221
225	0x3ece2080	0.4025917
226	0xbe5c63ef	-0.21522497
227	0x3e6f240a	0.23353592
228	0x3c89c599	0.016817855
229	0x3c489cba	0.012244398
230	0xbea3fc56	-0.32028455
231	0xbe427235	-0.18988879
232	0x3ec21d55	0.37913004
233	0xbe79a4c8	-0.24379265
234	0xbd06ab3d	-0.03287815
235	0xbd8186f0	-0.063245654
236	0xbe4ba47f	-0.19886969
237	0xbf46d372	-0.7766639
238	0xbe2965c7	-0.16542731
239	0x3d865a19	0.065601535
240	0x3e42be02	0.19017795
241	0xbe737869	-0.23776402
242	0xbe44d031	-0.19220044
243	0x3dc1e406	0.0946732
244	0x3e343756	0.17599234
245	0xbe1df9f1	-0.15427376
246	0xbeaeced2	-0.34142166
247	0xbc6fe1ab	-0.014641206
248	0xbf2364e4	-0.6382582
249	0xbeb93e70	-0.3618045
250	0xbeb4c7d2	-0.353087
251	0xbe1c2c57	-0.1525129
252	0xbe8e4f0b	-0.2779468
253	0xbe8f268e	-0.27959102
254	0xbe5a205a	-0.21301404
255	0xbecfda23	-0.40596113

fc2.bias f4 [64]
0	0xbe592690	-0.21206117
1	0x3f05952b	0.5218074
2	0x3d1a87f3	0.037727308
3	0xbd939d63	-0.072077535
4	0x3e6d9835	0.23202594
5	0xbe16a61c	-0.14711803
6	0xbe2c91f1	-0.16852547
7	0x3e5ede0e	0.21764395
8	0x3c6f9ced	0.014624816
9	0x3f20f705	0.6287692
10	0xbd8fc50d	-0.07020006
11	0x3d201f01	0.039092068
12	0x3d152c57	0.03641924
13	0x3c32874d	0.010896516
14	0xbddc5531	-0.107584365
15	0x3e9e19b2	0.3087898
16	0xbe5224dc	-0.20521873
17	0xbe2fcb5f	-0.17167424
18	0xbdda791d	-0.10667632
19	0x3ef4e52f	0.47831103
20	0x3e918b38	0.28426528
21	0x3f3e3695	0.74302036
22	0xbe0c0fae	-0.13677856
23	0xbcb81696	-0.022471707
24	0xbbedf8d3	-0.007262328
25	0xbe7bd20a	-0.24591842
26	0xbddc45c6	-0.10755496
27	0xbdd0ae5d	-0.10189507
28	0x3a804979	0.0009787522
29	0x3e282a48	0.16422379
30	0xbc948863	-0.01813144
31	0x3ca6702d	0.020317161
32	0xbe8eca67	-0.27888796
33	0x3e0f8fcd	0.140197
34	0xbe0468ce	-0.12930605
35	0xbdd7c0ee	-0.10534845
36	0xbcf4f618	-0.029902503
37	0xbe69c8dc	-0.22830528
38	0x3daa600a	0.08319099
39	0xbdd4b4a3	-0.10386016
40	0xbd9c69be	-0.07637356
41	0x3f375ae4	0.71623063
42	0x3c254bed	0.010088903
43	0xbbf3922c	-0.0074331965
44	0x3e9f4f40	0.3111515
45	0xbea32d6a	-0.31870586
46	0x3ef037ce	0.46917576
47	0xbe12dc6a	-0.14341894
48	0x3d9949da	0.07484789
49	0xbd345bf4	-0.044033006
50	0xbe986d0a	-0.2977069
51	0x3ec86a8a	0.39143783
52	0xbeab4ef7	-0.33458683
53	0xbe1eb785	-0.15499695
54	0x3e410128	0.18848097
55	0xbd8f5172	-0.06997956
56	0xbe2df237	-0.16986929
57	0xbe062899	-0.13101424
58	0x3e6809f1	0.22660042
59	0xbbde376e	-0.00678151
60	0x3c1fc403	0.009751323
61	0x3e59bf58	0.21264398
62	0x3d4e1f47	0.050322797
63	0xbe68b063	-0.22723536

fc3.weight f4 [4, 64]
0	0x3f5fdb67	0.87444156
1	0x3e254c6b	0.16142432
2	0x3f0d7d07	0.552689
3	0xbf0a671d	-0.5406359
4	0x3ec1e4c8	0.3786986
5	0xbf44f78c	-0.76940227
6	0x3ec5fbd5	0.38668695
7	0x3e450afd	0.19242473
8	0x3ef7b010	0.48376513
9	0x3dcdc0ed	0.10046563
10	0xbfd5421e	-1.6660802
11	0x3f32647e	0.6968459
12	0xbdc3a5d7	-0.09553116
13	0x3e98af4f	0.2982125
14	0xbd1c5030	-0.03816241
15	0x3c35857d	0.011079189
16	0xbffc6c4c	-1.972055
17	0x3f02f2c4	0.5115168
18	0x3dd68dcb	0.104762636
19	0x3ecd2aca	0.40071708
20	0x3d127a74	0.03576131
21	0x3e58044f	0.21095394
22	0x3ee0c9da	0.43904
23	0xbff5b0e4	-1.9194608
24	0xbd0dd42e	-0.03462618
25	0xbf070602	-0.5274354
26	0xbfff44b2	-1.9942839
27	0xbf905b92	-1.1277945
28	0x3ecb6140	0.39722633
29	0x3e1da640	0.1539545
30	0xc020caf5	-2.5123875
31	0x3e9cd2b9	0.3062952
32	0xbf965d63	-1.1747249
33	0x3e00a95e	0.12564608
34	0x3f2abc67	0.6669373
35	0x3e6b33da	0.22968999
36	0x3ec06748	0.37578797
37	0x3e8b724f	0.27235648
38	0x3e9e07d0	0.30865335
39	0xbf9f08f0	-1.2424603
40	0x3eca3212	0.39491326
41	0x3dd2e8a8	0.10298282
42	0xbf4b4d49	-0.794148
43	0xbecc279e	-0.39873976
44	0x3eb9eb24	0.3631221
45	0xbf8266e4	-1.018765
46	0x3e8a32ce	0.26991886
47	0x3e963b6f	0.2934222
48	0xbed0a043	-0.4074727
49	0x3ecffaae	0.4062094
50	0xbf567562	-0.8377286
51	0x3ec67d0d	0.3876728
52	0xbeb54f21	-0.35411933
53	0xbfa8bbeb	-1.3182348
54	0x3e15de32	0.14635542
55	0x3e8d5b8e	0.27608913
56	0xbf7b17d0	-0.9808321
57	0xbf25527e	-0.64579
58	0x3f056579	0.5210796
59	0x3ecef642	0.40422255
60	0xbf6f33a6	-0.93438184
61	0x3eb2b3ab	0.349027
62	0x3f28738a	0.658013
63	0xbe6079cc	-0.21921462
64	0x3eb186ec	0.3467325
65	0x3dc9b16b	0.09848293
66	0x3f117def	0.56832784
67	0xbee6de46	-0.45091456
68	0xbc83074c	-0.01599469
69	0xbea7c4e7	-0.32767412
70	0x3f1a2cf6	0.60224855
71	0x3e5b3694	0.21407539
72	0x3d760f33	0.06007309
73	0x3df12ed7	0.11776512
74	0xbf353e5b	-0.7079827
75	0x3ee22c35	0.44174352
76	0x3e4ecabb	0.20194523
77	0x3ed46c2a	0.41488773
78	0xbb8ff7dd	-0.0043935613
79	0x3eeb0c4e	0.45907825
80	0xbf070bf6	-0.52752626
81	0x3e822f10	0.2542653
82	0xbe835ad9	-0.2565525
83	0x3e2c5927	0.16830884
84	0x3d25b1d5	0.040452797
85	0x3e9fbcee	0.3119883
86	0xbf5e1e0f	-0.86764616
87	0x3f32b47f	0.69806665
88	0x3eb45f8d	0.3522915
89	0xbe39bbc0	-0.18138027
90	0xbc5fe1b2	-0.01366465
91	0x3db60e45	0.088894404
92	0x3e258637	0.1616448
93	0x3e43f8cf	0.19137882
94	0xbf1b8552	-0.60750306
95	0x3e1a1768	0.15047991
96	0x3ef72cb4	0.48276293
97	0xbe990377	-0.29885456
98	0x3f183785	0.59459716
99	0x3f02f441	0.5115395
100	0x3d3cc439	0.04608557
101	0xbfe049f7	-1.7522572
102	0x3edf62bd	0.4363002
103	0xbe18d93a	-0.14926615
104	0x3eada8ef	0.3391795
105	0x3e4dcbbf	0.20097254
106	0xbf3a45f2	-0.7276298
107	0x3f62831a	0.88481295
108	0xbe08ce97	-0.13360058
109	0xbf464859	-0.77454144
110	0x3e880b70	0.26571226
111	0x3cc41523	0.02393586
112	0x3f0629dc	0.5240762
113	0x3ee05415	0.4381415
114	0x3ccdf6e4	0.02514214
115	0xbd01febd	-0.031737078
116	0xbf0fdda8	-0.56197596
117	0x3dfb5ca6	0.12273531
118	0x3ec2409f	0.37939927
119	0x3f149b06	0.58049047
120	0xbf6c86e8	-0.9239335
121	0xbf5854b3	-0.8450424
122	0x3ec8d7ed	0.39227238
123	0x3e8a03dd	0.26956072
124	0xbf85cd53	-1.0453285
125	0x3e5e5c30	0.21714854
126	0xbf875915	-1.0574061
127	0xbd145f83	-0.0362239
128	0xbfdec797	-1.740466
129	0x3e9a432b	0.3012937
130	0x3e42b90f	0.19015907
131	0x3f381199	0.7190185
132	0x3eb81485	0.35953155
133	0xbda8e490	-0.0824672
134	0x3e86d8b1	0.26337197
135	0x3e941c7e	0.28927988
136	0x3e1473a6	0.14497241
137	0x3e175e15	0.14781983
138	0xbfce90c7	-1.6137933
139	0x3f2275ae	0.63460815
140	0x3ef29ce2	0.47385317
141	0xbf930832	-1.1486876
142	0xbd7266ab	-0.059179943
143	0x3e647c95	0.2231315
144	0x3ebc66d1	0.36797193
145	0xbf68990e	-0.9085854
146	0xbe0e1be9	-0.13877834
147	0x3e00c3fd	0.12574764
148	0xbfb1a71f	-1.3879126
149	0x3e70140e	0.2344515
150	0xbfc6f036	-1.5542057
151	0x3f1cb1db	0.61208886
152	0x3e5d77c6	0.21627721
153	0xbe9a2ab0	-0.30110693
154	0x3eadfc3d	0.33981505
155	0xbed198ab	-0.4093679
156	0xbe85a508	-0.2610247
157	0x3e9f63b8	0.31130767
158	0xbed47384	-0.4149438
159	0xbe183cfd	-0.14867015
160	0xbe9032f9	-0.2816389
161	0xbe0dff23	-0.13866858
162	0x3f3d16b4	0.7386277
163	0x3ecfda74	0.40596354
164	0xbf0d1388	-0.5510793
165	0xbf1429ad	-0.5787609
166	0x3ea4d214	0.32191527
167	0xbf1ffb97	-0.6249327
168	0x3e013c72	0.12620714
169	0x3e44df18	0.19225729
170	0x3ebe138c	0.37124288
171	0x3f586fa5	0.84545356
172	0x3cd4c5e6	0.025973272
173	0xbe6d3b3a	-0.23167124
174	0x3e03d811	0.12875392
175	0x3f717de6	0.9433273
176	0x3ebe59a6	0.3717777
177	0x3e5222cd	0.20521088
178	0xbdb6a033	-0.08917274
179	0x3e6c679b	0.23086397
180	0xbec28f86	-0.38000125
181	0x3f0847a9	0.53234345
182	0x3e7c754f	0.24654125
183	0x3e7032ce	0.2345688
184	0xbe0180a0	-0.12646723
185	0xbe5e152d	-0.21687765
186	0x3e683104	0.22674948
187	0x3ed2511a	0.410775
188	0x3e45a8d5	0.19302686
189	0x3ec11035	0.37707677
190	0xbf122996	-0.57094705
191	0xbf2c1598	-0.6722045
192	0xbfe37bde	-1.7772176
193	0x3e0fed74	0.14055425
194	0xbf911d95	-1.1337153
195	0xbf908f5c	-1.129375
196	0x3d8ad9a6	0.067797944
197	0xbd4eebf5	-0.050517995
198	0xbf759252	-0.9592639
199	0x3dea18e3	0.11430528
200	0x3e066ec9	0.13128199
201	0x3e75566e	0.23958752
202	0x3eaeaad4	0.34114707
203	0x3e91f4bc	0.2850703
204	0x3e967e9f	0.2939348
205	0x3f26e7c6	0.6519741
206	0x3d32687b	0.04355667
207	0x3df3899f	0.118914835
208	0xbe136b35	-0.14396365
209	0xbed92a3d	-0.42415038
210	0x3eebd138	0.4605806
211	0x3e217896	0.15768656
212	0x3f08165e	0.5315913
213	0x3eaa62d1	0.33278516
214	0xbfa554e9	-1.2916538
215	0x3f2c42c3	0.6728937
216	0x3ea82c9b	0.3284653
217	0xbea0d569	-0.3141282
218	0x3ea10847	0.31451628
219	0x3f3af3fa	0.7302853
220	0x3e7073ff	0.23481749
221	0xbe5caf5d	-0.21551271
222	0xbfd6e2a4	-1.6787915
223	0x3dc54dc5	0.09633974
224	0xbfa58d26	-1.29337
225	0x3dabd1cb	0.08389624
226	0x3e7d4d67	0.24736558
227	0xbfa5c796	-1.2951534
228	0xbdabd093	-0.08389392
229	0xbf9f2819	-1.2434112
230	0x3e7be13b	0.24597637
231	0xbefdd17e	-0.49573892
232	0xbfa71d7f	-1.3055876
233	0x3e888a80	0.26668167
234	0x3e966e3d	0.2938098
235	0xbf4cb114	-0.799577
236	0x3e125e31	0.14293744
237	0xbf1939d5	-0.5985387
238	0x3d547328	0.051867634
239	0x3f1070fd	0.56422406
240	0x3e1c2824	0.15249687
241	0x3e5e046d	0.21681376
242	0x3e9753e7	0.295562
243	0x3e0f2349	0.13978304
244	0xbecbd000	-0.3980713
245	0xbf88d334	-1.0689454
246	0x3ecd0781	0.40044788
247	0x3ed7f326	0.42177695
248	0xbf997c5c	-1.1991076
249	0xbe865022	-0.2623301
250	0x3dca05b1	0.09864367
251	0x3e3e2d76	0.1857203
252	0x3e241ed1	0.1602738
253	0x3e21db84	0.15806395
254	0xbfa29b00	-1.2703552
255	0xbe2c8012	-0.1684573

fc3.bias f4 [4]
0	0x3ebaebf3	0.3650814
1	0x3eb2dc0e	0.34933513
2	0x3eab2a9c	0.33430946
3	0x3ec4b716	0.38420933
